{"class_name": "Functional", "config": {"name": "model_1", "layers": [{"class_name": "InputLayer", "config": {"batch_input_shape": [null, 256, 256, 3], "dtype": "float32", "sparse": false, "ragged": false, "name": "input_2"}, "name": "input_2", "inbound_nodes": []}, {"class_name": "Conv2D", "config": {"name": "conv2d_203", "trainable": false, "dtype": "float32", "filters": 32, "kernel_size": [3, 3], "strides": [2, 2], "padding": "valid", "data_format": "channels_last", "dilation_rate": [1, 1], "groups": 1, "activation": "linear", "use_bias": false, "kernel_initializer": {"class_name": "GlorotUniform", "config": {"seed": null}}, "bias_initializer": {"class_name": "Zeros", "config": {}}, "kernel_regularizer": null, "bias_regularizer": null, "activity_regularizer": null, "kernel_constraint": null, "bias_constraint": null}, "name": "conv2d_203", "inbound_nodes": [[["input_2", 0, 0, {}]]]}, {"class_name": "BatchNormalization", "config": {"name": "batch_normalization_203", "trainable": false, "dtype": "float32", "axis": [3], "momentum": 0.99, "epsilon": 0.001, "center": true, "scale": false, "beta_initializer": {"class_name": "Zeros", "config": {}}, "gamma_initializer": {"class_name": "Ones", "config": {}}, "moving_mean_initializer": {"class_name": "Zeros", "config": {}}, "moving_variance_initializer": {"class_name": "Ones", "config": {}}, "beta_regularizer": null, "gamma_regularizer": null, "beta_constraint": null, "gamma_constraint": null}, "name": "batch_normalization_203", "inbound_nodes": [[["conv2d_203", 0, 0, {}]]]}, {"class_name": "Activation", "config": {"name": "activation_203", "trainable": false, "dtype": "float32", "activation": "relu"}, "name": "activation_203", "inbound_nodes": [[["batch_normalization_203", 0, 0, {}]]]}, {"class_name": "Conv2D", "config": {"name": "conv2d_204", "trainable": false, "dtype": "float32", "filters": 32, "kernel_size": [3, 3], "strides": [1, 1], "padding": "valid", "data_format": "channels_last", "dilation_rate": [1, 1], "groups": 1, "activation": "linear", "use_bias": false, "kernel_initializer": {"class_name": "GlorotUniform", "config": {"seed": null}}, "bias_initializer": {"class_name": "Zeros", "config": {}}, "kernel_regularizer": null, "bias_regularizer": null, "activity_regularizer": null, "kernel_constraint": null, "bias_constraint": null}, "name": "conv2d_204", "inbound_nodes": [[["activation_203", 0, 0, {}]]]}, {"class_name": "BatchNormalization", "config": {"name": "batch_normalization_204", "trainable": false, "dtype": "float32", "axis": [3], "momentum": 0.99, "epsilon": 0.001, "center": true, "scale": false, "beta_initializer": {"class_name": "Zeros", "config": {}}, "gamma_initializer": {"class_name": "Ones", "config": {}}, "moving_mean_initializer": {"class_name": "Zeros", "config": {}}, "moving_variance_initializer": {"class_name": "Ones", "config": {}}, "beta_regularizer": null, "gamma_regularizer": null, "beta_constraint": null, "gamma_constraint": null}, "name": "batch_normalization_204", "inbound_nodes": [[["conv2d_204", 0, 0, {}]]]}, {"class_name": "Activation", "config": {"name": "activation_204", "trainable": false, "dtype": "float32", "activation": "relu"}, "name": "activation_204", "inbound_nodes": [[["batch_normalization_204", 0, 0, {}]]]}, {"class_name": "Conv2D", "config": {"name": "conv2d_205", "trainable": false, "dtype": "float32", "filters": 64, "kernel_size": [3, 3], "strides": [1, 1], "padding": "same", "data_format": "channels_last", "dilation_rate": [1, 1], "groups": 1, "activation": "linear", "use_bias": false, "kernel_initializer": {"class_name": "GlorotUniform", "config": {"seed": null}}, "bias_initializer": {"class_name": "Zeros", "config": {}}, "kernel_regularizer": null, "bias_regularizer": null, "activity_regularizer": null, "kernel_constraint": null, "bias_constraint": null}, "name": "conv2d_205", "inbound_nodes": [[["activation_204", 0, 0, {}]]]}, {"class_name": "BatchNormalization", "config": {"name": "batch_normalization_205", "trainable": false, "dtype": "float32", "axis": [3], "momentum": 0.99, "epsilon": 0.001, "center": true, "scale": false, "beta_initializer": {"class_name": "Zeros", "config": {}}, "gamma_initializer": {"class_name": "Ones", "config": {}}, "moving_mean_initializer": {"class_name": "Zeros", "config": {}}, "moving_variance_initializer": {"class_name": "Ones", "config": {}}, "beta_regularizer": null, "gamma_regularizer": null, "beta_constraint": null, "gamma_constraint": null}, "name": "batch_normalization_205", "inbound_nodes": [[["conv2d_205", 0, 0, {}]]]}, {"class_name": "Activation", "config": {"name": "activation_205", "trainable": false, "dtype": "float32", "activation": "relu"}, "name": "activation_205", "inbound_nodes": [[["batch_normalization_205", 0, 0, {}]]]}, {"class_name": "MaxPooling2D", "config": {"name": "max_pooling2d_4", "trainable": false, "dtype": "float32", "pool_size": [3, 3], "padding": "valid", "strides": [2, 2], "data_format": "channels_last"}, "name": "max_pooling2d_4", "inbound_nodes": [[["activation_205", 0, 0, {}]]]}, {"class_name": "Conv2D", "config": {"name": "conv2d_206", "trainable": false, "dtype": "float32", "filters": 80, "kernel_size": [1, 1], "strides": [1, 1], "padding": "valid", "data_format": "channels_last", "dilation_rate": [1, 1], "groups": 1, "activation": "linear", "use_bias": false, "kernel_initializer": {"class_name": "GlorotUniform", "config": {"seed": null}}, "bias_initializer": {"class_name": "Zeros", "config": {}}, "kernel_regularizer": null, "bias_regularizer": null, "activity_regularizer": null, "kernel_constraint": null, "bias_constraint": null}, "name": "conv2d_206", "inbound_nodes": [[["max_pooling2d_4", 0, 0, {}]]]}, {"class_name": "BatchNormalization", "config": {"name": "batch_normalization_206", "trainable": false, "dtype": "float32", "axis": [3], "momentum": 0.99, "epsilon": 0.001, "center": true, "scale": false, "beta_initializer": {"class_name": "Zeros", "config": {}}, "gamma_initializer": {"class_name": "Ones", "config": {}}, "moving_mean_initializer": {"class_name": "Zeros", "config": {}}, "moving_variance_initializer": {"class_name": "Ones", "config": {}}, "beta_regularizer": null, "gamma_regularizer": null, "beta_constraint": null, "gamma_constraint": null}, "name": "batch_normalization_206", "inbound_nodes": [[["conv2d_206", 0, 0, {}]]]}, {"class_name": "Activation", "config": {"name": "activation_206", "trainable": false, "dtype": "float32", "activation": "relu"}, "name": "activation_206", "inbound_nodes": [[["batch_normalization_206", 0, 0, {}]]]}, {"class_name": "Conv2D", "config": {"name": "conv2d_207", "trainable": false, "dtype": "float32", "filters": 192, "kernel_size": [3, 3], "strides": [1, 1], "padding": "valid", "data_format": "channels_last", "dilation_rate": [1, 1], "groups": 1, "activation": "linear", "use_bias": false, "kernel_initializer": {"class_name": "GlorotUniform", "config": {"seed": null}}, "bias_initializer": {"class_name": "Zeros", "config": {}}, "kernel_regularizer": null, "bias_regularizer": null, "activity_regularizer": null, "kernel_constraint": null, "bias_constraint": null}, "name": "conv2d_207", "inbound_nodes": [[["activation_206", 0, 0, {}]]]}, {"class_name": "BatchNormalization", "config": {"name": "batch_normalization_207", "trainable": false, "dtype": "float32", "axis": [3], "momentum": 0.99, "epsilon": 0.001, "center": true, "scale": false, "beta_initializer": {"class_name": "Zeros", "config": {}}, "gamma_initializer": {"class_name": "Ones", "config": {}}, "moving_mean_initializer": {"class_name": "Zeros", "config": {}}, "moving_variance_initializer": {"class_name": "Ones", "config": {}}, "beta_regularizer": null, "gamma_regularizer": null, "beta_constraint": null, "gamma_constraint": null}, "name": "batch_normalization_207", "inbound_nodes": [[["conv2d_207", 0, 0, {}]]]}, {"class_name": "Activation", "config": {"name": "activation_207", "trainable": false, "dtype": "float32", "activation": "relu"}, "name": "activation_207", "inbound_nodes": [[["batch_normalization_207", 0, 0, {}]]]}, {"class_name": "MaxPooling2D", "config": {"name": "max_pooling2d_5", "trainable": false, "dtype": "float32", "pool_size": [3, 3], "padding": "valid", "strides": [2, 2], "data_format": "channels_last"}, "name": "max_pooling2d_5", "inbound_nodes": [[["activation_207", 0, 0, {}]]]}, {"class_name": "Conv2D", "config": {"name": "conv2d_211", "trainable": false, "dtype": "float32", "filters": 64, "kernel_size": [1, 1], "strides": [1, 1], "padding": "same", "data_format": "channels_last", "dilation_rate": [1, 1], "groups": 1, "activation": "linear", "use_bias": false, "kernel_initializer": {"class_name": "GlorotUniform", "config": {"seed": null}}, "bias_initializer": {"class_name": "Zeros", "config": {}}, "kernel_regularizer": null, "bias_regularizer": null, "activity_regularizer": null, "kernel_constraint": null, "bias_constraint": null}, "name": "conv2d_211", "inbound_nodes": [[["max_pooling2d_5", 0, 0, {}]]]}, {"class_name": "BatchNormalization", "config": {"name": "batch_normalization_211", "trainable": false, "dtype": "float32", "axis": [3], "momentum": 0.99, "epsilon": 0.001, "center": true, "scale": false, "beta_initializer": {"class_name": "Zeros", "config": {}}, "gamma_initializer": {"class_name": "Ones", "config": {}}, "moving_mean_initializer": {"class_name": "Zeros", "config": {}}, "moving_variance_initializer": {"class_name": "Ones", "config": {}}, "beta_regularizer": null, "gamma_regularizer": null, "beta_constraint": null, "gamma_constraint": null}, "name": "batch_normalization_211", "inbound_nodes": [[["conv2d_211", 0, 0, {}]]]}, {"class_name": "Activation", "config": {"name": "activation_211", "trainable": false, "dtype": "float32", "activation": "relu"}, "name": "activation_211", "inbound_nodes": [[["batch_normalization_211", 0, 0, {}]]]}, {"class_name": "Conv2D", "config": {"name": "conv2d_209", "trainable": false, "dtype": "float32", "filters": 48, "kernel_size": [1, 1], "strides": [1, 1], "padding": "same", "data_format": "channels_last", "dilation_rate": [1, 1], "groups": 1, "activation": "linear", "use_bias": false, "kernel_initializer": {"class_name": "GlorotUniform", "config": {"seed": null}}, "bias_initializer": {"class_name": "Zeros", "config": {}}, "kernel_regularizer": null, "bias_regularizer": null, "activity_regularizer": null, "kernel_constraint": null, "bias_constraint": null}, "name": "conv2d_209", "inbound_nodes": [[["max_pooling2d_5", 0, 0, {}]]]}, {"class_name": "Conv2D", "config": {"name": "conv2d_212", "trainable": false, "dtype": "float32", "filters": 96, "kernel_size": [3, 3], "strides": [1, 1], "padding": "same", "data_format": "channels_last", "dilation_rate": [1, 1], "groups": 1, "activation": "linear", "use_bias": false, "kernel_initializer": {"class_name": "GlorotUniform", "config": {"seed": null}}, "bias_initializer": {"class_name": "Zeros", "config": {}}, "kernel_regularizer": null, "bias_regularizer": null, "activity_regularizer": null, "kernel_constraint": null, "bias_constraint": null}, "name": "conv2d_212", "inbound_nodes": [[["activation_211", 0, 0, {}]]]}, {"class_name": "BatchNormalization", "config": {"name": "batch_normalization_209", "trainable": false, "dtype": "float32", "axis": [3], "momentum": 0.99, "epsilon": 0.001, "center": true, "scale": false, "beta_initializer": {"class_name": "Zeros", "config": {}}, "gamma_initializer": {"class_name": "Ones", "config": {}}, "moving_mean_initializer": {"class_name": "Zeros", "config": {}}, "moving_variance_initializer": {"class_name": "Ones", "config": {}}, "beta_regularizer": null, "gamma_regularizer": null, "beta_constraint": null, "gamma_constraint": null}, "name": "batch_normalization_209", "inbound_nodes": [[["conv2d_209", 0, 0, {}]]]}, {"class_name": "BatchNormalization", "config": {"name": "batch_normalization_212", "trainable": false, "dtype": "float32", "axis": [3], "momentum": 0.99, "epsilon": 0.001, "center": true, "scale": false, "beta_initializer": {"class_name": "Zeros", "config": {}}, "gamma_initializer": {"class_name": "Ones", "config": {}}, "moving_mean_initializer": {"class_name": "Zeros", "config": {}}, "moving_variance_initializer": {"class_name": "Ones", "config": {}}, "beta_regularizer": null, "gamma_regularizer": null, "beta_constraint": null, "gamma_constraint": null}, "name": "batch_normalization_212", "inbound_nodes": [[["conv2d_212", 0, 0, {}]]]}, {"class_name": "Activation", "config": {"name": "activation_209", "trainable": false, "dtype": "float32", "activation": "relu"}, "name": "activation_209", "inbound_nodes": [[["batch_normalization_209", 0, 0, {}]]]}, {"class_name": "Activation", "config": {"name": "activation_212", "trainable": false, "dtype": "float32", "activation": "relu"}, "name": "activation_212", "inbound_nodes": [[["batch_normalization_212", 0, 0, {}]]]}, {"class_name": "AveragePooling2D", "config": {"name": "average_pooling2d_1", "trainable": false, "dtype": "float32", "pool_size": [3, 3], "padding": "same", "strides": [1, 1], "data_format": "channels_last"}, "name": "average_pooling2d_1", "inbound_nodes": [[["max_pooling2d_5", 0, 0, {}]]]}, {"class_name": "Conv2D", "config": {"name": "conv2d_208", "trainable": false, "dtype": "float32", "filters": 96, "kernel_size": [1, 1], "strides": [1, 1], "padding": "same", "data_format": "channels_last", "dilation_rate": [1, 1], "groups": 1, "activation": "linear", "use_bias": false, "kernel_initializer": {"class_name": "GlorotUniform", "config": {"seed": null}}, "bias_initializer": {"class_name": "Zeros", "config": {}}, "kernel_regularizer": null, "bias_regularizer": null, "activity_regularizer": null, "kernel_constraint": null, "bias_constraint": null}, "name": "conv2d_208", "inbound_nodes": [[["max_pooling2d_5", 0, 0, {}]]]}, {"class_name": "Conv2D", "config": {"name": "conv2d_210", "trainable": false, "dtype": "float32", "filters": 64, "kernel_size": [5, 5], "strides": [1, 1], "padding": "same", "data_format": "channels_last", "dilation_rate": [1, 1], "groups": 1, "activation": "linear", "use_bias": false, "kernel_initializer": {"class_name": "GlorotUniform", "config": {"seed": null}}, "bias_initializer": {"class_name": "Zeros", "config": {}}, "kernel_regularizer": null, "bias_regularizer": null, "activity_regularizer": null, "kernel_constraint": null, "bias_constraint": null}, "name": "conv2d_210", "inbound_nodes": [[["activation_209", 0, 0, {}]]]}, {"class_name": "Conv2D", "config": {"name": "conv2d_213", "trainable": false, "dtype": "float32", "filters": 96, "kernel_size": [3, 3], "strides": [1, 1], "padding": "same", "data_format": "channels_last", "dilation_rate": [1, 1], "groups": 1, "activation": "linear", "use_bias": false, "kernel_initializer": {"class_name": "GlorotUniform", "config": {"seed": null}}, "bias_initializer": {"class_name": "Zeros", "config": {}}, "kernel_regularizer": null, "bias_regularizer": null, "activity_regularizer": null, "kernel_constraint": null, "bias_constraint": null}, "name": "conv2d_213", "inbound_nodes": [[["activation_212", 0, 0, {}]]]}, {"class_name": "Conv2D", "config": {"name": "conv2d_214", "trainable": false, "dtype": "float32", "filters": 64, "kernel_size": [1, 1], "strides": [1, 1], "padding": "same", "data_format": "channels_last", "dilation_rate": [1, 1], "groups": 1, "activation": "linear", "use_bias": false, "kernel_initializer": {"class_name": "GlorotUniform", "config": {"seed": null}}, "bias_initializer": {"class_name": "Zeros", "config": {}}, "kernel_regularizer": null, "bias_regularizer": null, "activity_regularizer": null, "kernel_constraint": null, "bias_constraint": null}, "name": "conv2d_214", "inbound_nodes": [[["average_pooling2d_1", 0, 0, {}]]]}, {"class_name": "BatchNormalization", "config": {"name": "batch_normalization_208", "trainable": false, "dtype": "float32", "axis": [3], "momentum": 0.99, "epsilon": 0.001, "center": true, "scale": false, "beta_initializer": {"class_name": "Zeros", "config": {}}, "gamma_initializer": {"class_name": "Ones", "config": {}}, "moving_mean_initializer": {"class_name": "Zeros", "config": {}}, "moving_variance_initializer": {"class_name": "Ones", "config": {}}, "beta_regularizer": null, "gamma_regularizer": null, "beta_constraint": null, "gamma_constraint": null}, "name": "batch_normalization_208", "inbound_nodes": [[["conv2d_208", 0, 0, {}]]]}, {"class_name": "BatchNormalization", "config": {"name": "batch_normalization_210", "trainable": false, "dtype": "float32", "axis": [3], "momentum": 0.99, "epsilon": 0.001, "center": true, "scale": false, "beta_initializer": {"class_name": "Zeros", "config": {}}, "gamma_initializer": {"class_name": "Ones", "config": {}}, "moving_mean_initializer": {"class_name": "Zeros", "config": {}}, "moving_variance_initializer": {"class_name": "Ones", "config": {}}, "beta_regularizer": null, "gamma_regularizer": null, "beta_constraint": null, "gamma_constraint": null}, "name": "batch_normalization_210", "inbound_nodes": [[["conv2d_210", 0, 0, {}]]]}, {"class_name": "BatchNormalization", "config": {"name": "batch_normalization_213", "trainable": false, "dtype": "float32", "axis": [3], "momentum": 0.99, "epsilon": 0.001, "center": true, "scale": false, "beta_initializer": {"class_name": "Zeros", "config": {}}, "gamma_initializer": {"class_name": "Ones", "config": {}}, "moving_mean_initializer": {"class_name": "Zeros", "config": {}}, "moving_variance_initializer": {"class_name": "Ones", "config": {}}, "beta_regularizer": null, "gamma_regularizer": null, "beta_constraint": null, "gamma_constraint": null}, "name": "batch_normalization_213", "inbound_nodes": [[["conv2d_213", 0, 0, {}]]]}, {"class_name": "BatchNormalization", "config": {"name": "batch_normalization_214", "trainable": false, "dtype": "float32", "axis": [3], "momentum": 0.99, "epsilon": 0.001, "center": true, "scale": false, "beta_initializer": {"class_name": "Zeros", "config": {}}, "gamma_initializer": {"class_name": "Ones", "config": {}}, "moving_mean_initializer": {"class_name": "Zeros", "config": {}}, "moving_variance_initializer": {"class_name": "Ones", "config": {}}, "beta_regularizer": null, "gamma_regularizer": null, "beta_constraint": null, "gamma_constraint": null}, "name": "batch_normalization_214", "inbound_nodes": [[["conv2d_214", 0, 0, {}]]]}, {"class_name": "Activation", "config": {"name": "activation_208", "trainable": false, "dtype": "float32", "activation": "relu"}, "name": "activation_208", "inbound_nodes": [[["batch_normalization_208", 0, 0, {}]]]}, {"class_name": "Activation", "config": {"name": "activation_210", "trainable": false, "dtype": "float32", "activation": "relu"}, "name": "activation_210", "inbound_nodes": [[["batch_normalization_210", 0, 0, {}]]]}, {"class_name": "Activation", "config": {"name": "activation_213", "trainable": false, "dtype": "float32", "activation": "relu"}, "name": "activation_213", "inbound_nodes": [[["batch_normalization_213", 0, 0, {}]]]}, {"class_name": "Activation", "config": {"name": "activation_214", "trainable": false, "dtype": "float32", "activation": "relu"}, "name": "activation_214", "inbound_nodes": [[["batch_normalization_214", 0, 0, {}]]]}, {"class_name": "Concatenate", "config": {"name": "mixed_5b", "trainable": false, "dtype": "float32", "axis": 3}, "name": "mixed_5b", "inbound_nodes": [[["activation_208", 0, 0, {}], ["activation_210", 0, 0, {}], ["activation_213", 0, 0, {}], ["activation_214", 0, 0, {}]]]}, {"class_name": "Conv2D", "config": {"name": "conv2d_218", "trainable": false, "dtype": "float32", "filters": 32, "kernel_size": [1, 1], "strides": [1, 1], "padding": "same", "data_format": "channels_last", "dilation_rate": [1, 1], "groups": 1, "activation": "linear", "use_bias": false, "kernel_initializer": {"class_name": "GlorotUniform", "config": {"seed": null}}, "bias_initializer": {"class_name": "Zeros", "config": {}}, "kernel_regularizer": null, "bias_regularizer": null, "activity_regularizer": null, "kernel_constraint": null, "bias_constraint": null}, "name": "conv2d_218", "inbound_nodes": [[["mixed_5b", 0, 0, {}]]]}, {"class_name": "BatchNormalization", "config": {"name": "batch_normalization_218", "trainable": false, "dtype": "float32", "axis": [3], "momentum": 0.99, "epsilon": 0.001, "center": true, "scale": false, "beta_initializer": {"class_name": "Zeros", "config": {}}, "gamma_initializer": {"class_name": "Ones", "config": {}}, "moving_mean_initializer": {"class_name": "Zeros", "config": {}}, "moving_variance_initializer": {"class_name": "Ones", "config": {}}, "beta_regularizer": null, "gamma_regularizer": null, "beta_constraint": null, "gamma_constraint": null}, "name": "batch_normalization_218", "inbound_nodes": [[["conv2d_218", 0, 0, {}]]]}, {"class_name": "Activation", "config": {"name": "activation_218", "trainable": false, "dtype": "float32", "activation": "relu"}, "name": "activation_218", "inbound_nodes": [[["batch_normalization_218", 0, 0, {}]]]}, {"class_name": "Conv2D", "config": {"name": "conv2d_216", "trainable": false, "dtype": "float32", "filters": 32, "kernel_size": [1, 1], "strides": [1, 1], "padding": "same", "data_format": "channels_last", "dilation_rate": [1, 1], "groups": 1, "activation": "linear", "use_bias": false, "kernel_initializer": {"class_name": "GlorotUniform", "config": {"seed": null}}, "bias_initializer": {"class_name": "Zeros", "config": {}}, "kernel_regularizer": null, "bias_regularizer": null, "activity_regularizer": null, "kernel_constraint": null, "bias_constraint": null}, "name": "conv2d_216", "inbound_nodes": [[["mixed_5b", 0, 0, {}]]]}, {"class_name": "Conv2D", "config": {"name": "conv2d_219", "trainable": false, "dtype": "float32", "filters": 48, "kernel_size": [3, 3], "strides": [1, 1], "padding": "same", "data_format": "channels_last", "dilation_rate": [1, 1], "groups": 1, "activation": "linear", "use_bias": false, "kernel_initializer": {"class_name": "GlorotUniform", "config": {"seed": null}}, "bias_initializer": {"class_name": "Zeros", "config": {}}, "kernel_regularizer": null, "bias_regularizer": null, "activity_regularizer": null, "kernel_constraint": null, "bias_constraint": null}, "name": "conv2d_219", "inbound_nodes": [[["activation_218", 0, 0, {}]]]}, {"class_name": "BatchNormalization", "config": {"name": "batch_normalization_216", "trainable": false, "dtype": "float32", "axis": [3], "momentum": 0.99, "epsilon": 0.001, "center": true, "scale": false, "beta_initializer": {"class_name": "Zeros", "config": {}}, "gamma_initializer": {"class_name": "Ones", "config": {}}, "moving_mean_initializer": {"class_name": "Zeros", "config": {}}, "moving_variance_initializer": {"class_name": "Ones", "config": {}}, "beta_regularizer": null, "gamma_regularizer": null, "beta_constraint": null, "gamma_constraint": null}, "name": "batch_normalization_216", "inbound_nodes": [[["conv2d_216", 0, 0, {}]]]}, {"class_name": "BatchNormalization", "config": {"name": "batch_normalization_219", "trainable": false, "dtype": "float32", "axis": [3], "momentum": 0.99, "epsilon": 0.001, "center": true, "scale": false, "beta_initializer": {"class_name": "Zeros", "config": {}}, "gamma_initializer": {"class_name": "Ones", "config": {}}, "moving_mean_initializer": {"class_name": "Zeros", "config": {}}, "moving_variance_initializer": {"class_name": "Ones", "config": {}}, "beta_regularizer": null, "gamma_regularizer": null, "beta_constraint": null, "gamma_constraint": null}, "name": "batch_normalization_219", "inbound_nodes": [[["conv2d_219", 0, 0, {}]]]}, {"class_name": "Activation", "config": {"name": "activation_216", "trainable": false, "dtype": "float32", "activation": "relu"}, "name": "activation_216", "inbound_nodes": [[["batch_normalization_216", 0, 0, {}]]]}, {"class_name": "Activation", "config": {"name": "activation_219", "trainable": false, "dtype": "float32", "activation": "relu"}, "name": "activation_219", "inbound_nodes": [[["batch_normalization_219", 0, 0, {}]]]}, {"class_name": "Conv2D", "config": {"name": "conv2d_215", "trainable": false, "dtype": "float32", "filters": 32, "kernel_size": [1, 1], "strides": [1, 1], "padding": "same", "data_format": "channels_last", "dilation_rate": [1, 1], "groups": 1, "activation": "linear", "use_bias": false, "kernel_initializer": {"class_name": "GlorotUniform", "config": {"seed": null}}, "bias_initializer": {"class_name": "Zeros", "config": {}}, "kernel_regularizer": null, "bias_regularizer": null, "activity_regularizer": null, "kernel_constraint": null, "bias_constraint": null}, "name": "conv2d_215", "inbound_nodes": [[["mixed_5b", 0, 0, {}]]]}, {"class_name": "Conv2D", "config": {"name": "conv2d_217", "trainable": false, "dtype": "float32", "filters": 32, "kernel_size": [3, 3], "strides": [1, 1], "padding": "same", "data_format": "channels_last", "dilation_rate": [1, 1], "groups": 1, "activation": "linear", "use_bias": false, "kernel_initializer": {"class_name": "GlorotUniform", "config": {"seed": null}}, "bias_initializer": {"class_name": "Zeros", "config": {}}, "kernel_regularizer": null, "bias_regularizer": null, "activity_regularizer": null, "kernel_constraint": null, "bias_constraint": null}, "name": "conv2d_217", "inbound_nodes": [[["activation_216", 0, 0, {}]]]}, {"class_name": "Conv2D", "config": {"name": "conv2d_220", "trainable": false, "dtype": "float32", "filters": 64, "kernel_size": [3, 3], "strides": [1, 1], "padding": "same", "data_format": "channels_last", "dilation_rate": [1, 1], "groups": 1, "activation": "linear", "use_bias": false, "kernel_initializer": {"class_name": "GlorotUniform", "config": {"seed": null}}, "bias_initializer": {"class_name": "Zeros", "config": {}}, "kernel_regularizer": null, "bias_regularizer": null, "activity_regularizer": null, "kernel_constraint": null, "bias_constraint": null}, "name": "conv2d_220", "inbound_nodes": [[["activation_219", 0, 0, {}]]]}, {"class_name": "BatchNormalization", "config": {"name": "batch_normalization_215", "trainable": false, "dtype": "float32", "axis": [3], "momentum": 0.99, "epsilon": 0.001, "center": true, "scale": false, "beta_initializer": {"class_name": "Zeros", "config": {}}, "gamma_initializer": {"class_name": "Ones", "config": {}}, "moving_mean_initializer": {"class_name": "Zeros", "config": {}}, "moving_variance_initializer": {"class_name": "Ones", "config": {}}, "beta_regularizer": null, "gamma_regularizer": null, "beta_constraint": null, "gamma_constraint": null}, "name": "batch_normalization_215", "inbound_nodes": [[["conv2d_215", 0, 0, {}]]]}, {"class_name": "BatchNormalization", "config": {"name": "batch_normalization_217", "trainable": false, "dtype": "float32", "axis": [3], "momentum": 0.99, "epsilon": 0.001, "center": true, "scale": false, "beta_initializer": {"class_name": "Zeros", "config": {}}, "gamma_initializer": {"class_name": "Ones", "config": {}}, "moving_mean_initializer": {"class_name": "Zeros", "config": {}}, "moving_variance_initializer": {"class_name": "Ones", "config": {}}, "beta_regularizer": null, "gamma_regularizer": null, "beta_constraint": null, "gamma_constraint": null}, "name": "batch_normalization_217", "inbound_nodes": [[["conv2d_217", 0, 0, {}]]]}, {"class_name": "BatchNormalization", "config": {"name": "batch_normalization_220", "trainable": false, "dtype": "float32", "axis": [3], "momentum": 0.99, "epsilon": 0.001, "center": true, "scale": false, "beta_initializer": {"class_name": "Zeros", "config": {}}, "gamma_initializer": {"class_name": "Ones", "config": {}}, "moving_mean_initializer": {"class_name": "Zeros", "config": {}}, "moving_variance_initializer": {"class_name": "Ones", "config": {}}, "beta_regularizer": null, "gamma_regularizer": null, "beta_constraint": null, "gamma_constraint": null}, "name": "batch_normalization_220", "inbound_nodes": [[["conv2d_220", 0, 0, {}]]]}, {"class_name": "Activation", "config": {"name": "activation_215", "trainable": false, "dtype": "float32", "activation": "relu"}, "name": "activation_215", "inbound_nodes": [[["batch_normalization_215", 0, 0, {}]]]}, {"class_name": "Activation", "config": {"name": "activation_217", "trainable": false, "dtype": "float32", "activation": "relu"}, "name": "activation_217", "inbound_nodes": [[["batch_normalization_217", 0, 0, {}]]]}, {"class_name": "Activation", "config": {"name": "activation_220", "trainable": false, "dtype": "float32", "activation": "relu"}, "name": "activation_220", "inbound_nodes": [[["batch_normalization_220", 0, 0, {}]]]}, {"class_name": "Concatenate", "config": {"name": "block35_1_mixed", "trainable": false, "dtype": "float32", "axis": 3}, "name": "block35_1_mixed", "inbound_nodes": [[["activation_215", 0, 0, {}], ["activation_217", 0, 0, {}], ["activation_220", 0, 0, {}]]]}, {"class_name": "Conv2D", "config": {"name": "block35_1_conv", "trainable": false, "dtype": "float32", "filters": 320, "kernel_size": [1, 1], "strides": [1, 1], "padding": "same", "data_format": "channels_last", "dilation_rate": [1, 1], "groups": 1, "activation": "linear", "use_bias": true, "kernel_initializer": {"class_name": "GlorotUniform", "config": {"seed": null}}, "bias_initializer": {"class_name": "Zeros", "config": {}}, "kernel_regularizer": null, "bias_regularizer": null, "activity_regularizer": null, "kernel_constraint": null, "bias_constraint": null}, "name": "block35_1_conv", "inbound_nodes": [[["block35_1_mixed", 0, 0, {}]]]}, {"class_name": "Lambda", "config": {"name": "block35_1", "trainable": false, "dtype": "float32", "function": ["4wIAAAAAAAAAAAAAAAIAAAADAAAAUwAAAHMUAAAAfABkARkAfABkAhkAfAEUABcAUwApA07pAAAA\nAOkBAAAAqQApAtoGaW5wdXRz2gVzY2FsZXIDAAAAcgMAAAD6ckM6L1VzZXJzL0luZHJhL2FuYWNv\nbmRhMy9lbnZzL3RmLWdwdS9saWIvc2l0ZS1wYWNrYWdlcy90ZW5zb3JmbG93L3B5dGhvbi9rZXJh\ncy9hcHBsaWNhdGlvbnMvaW5jZXB0aW9uX3Jlc25ldF92Mi5wedoIPGxhbWJkYT5xAQAA8wAAAAA=\n", null, null], "function_type": "lambda", "module": "tensorflow.python.keras.applications.inception_resnet_v2", "output_shape": [29, 29, 320], "output_shape_type": "raw", "output_shape_module": null, "arguments": {"scale": 0.17}}, "name": "block35_1", "inbound_nodes": [[["mixed_5b", 0, 0, {}], ["block35_1_conv", 0, 0, {}]]]}, {"class_name": "Activation", "config": {"name": "block35_1_ac", "trainable": false, "dtype": "float32", "activation": "relu"}, "name": "block35_1_ac", "inbound_nodes": [[["block35_1", 0, 0, {}]]]}, {"class_name": "Conv2D", "config": {"name": "conv2d_224", "trainable": false, "dtype": "float32", "filters": 32, "kernel_size": [1, 1], "strides": [1, 1], "padding": "same", "data_format": "channels_last", "dilation_rate": [1, 1], "groups": 1, "activation": "linear", "use_bias": false, "kernel_initializer": {"class_name": "GlorotUniform", "config": {"seed": null}}, "bias_initializer": {"class_name": "Zeros", "config": {}}, "kernel_regularizer": null, "bias_regularizer": null, "activity_regularizer": null, "kernel_constraint": null, "bias_constraint": null}, "name": "conv2d_224", "inbound_nodes": [[["block35_1_ac", 0, 0, {}]]]}, {"class_name": "BatchNormalization", "config": {"name": "batch_normalization_224", "trainable": false, "dtype": "float32", "axis": [3], "momentum": 0.99, "epsilon": 0.001, "center": true, "scale": false, "beta_initializer": {"class_name": "Zeros", "config": {}}, "gamma_initializer": {"class_name": "Ones", "config": {}}, "moving_mean_initializer": {"class_name": "Zeros", "config": {}}, "moving_variance_initializer": {"class_name": "Ones", "config": {}}, "beta_regularizer": null, "gamma_regularizer": null, "beta_constraint": null, "gamma_constraint": null}, "name": "batch_normalization_224", "inbound_nodes": [[["conv2d_224", 0, 0, {}]]]}, {"class_name": "Activation", "config": {"name": "activation_224", "trainable": false, "dtype": "float32", "activation": "relu"}, "name": "activation_224", "inbound_nodes": [[["batch_normalization_224", 0, 0, {}]]]}, {"class_name": "Conv2D", "config": {"name": "conv2d_222", "trainable": false, "dtype": "float32", "filters": 32, "kernel_size": [1, 1], "strides": [1, 1], "padding": "same", "data_format": "channels_last", "dilation_rate": [1, 1], "groups": 1, "activation": "linear", "use_bias": false, "kernel_initializer": {"class_name": "GlorotUniform", "config": {"seed": null}}, "bias_initializer": {"class_name": "Zeros", "config": {}}, "kernel_regularizer": null, "bias_regularizer": null, "activity_regularizer": null, "kernel_constraint": null, "bias_constraint": null}, "name": "conv2d_222", "inbound_nodes": [[["block35_1_ac", 0, 0, {}]]]}, {"class_name": "Conv2D", "config": {"name": "conv2d_225", "trainable": false, "dtype": "float32", "filters": 48, "kernel_size": [3, 3], "strides": [1, 1], "padding": "same", "data_format": "channels_last", "dilation_rate": [1, 1], "groups": 1, "activation": "linear", "use_bias": false, "kernel_initializer": {"class_name": "GlorotUniform", "config": {"seed": null}}, "bias_initializer": {"class_name": "Zeros", "config": {}}, "kernel_regularizer": null, "bias_regularizer": null, "activity_regularizer": null, "kernel_constraint": null, "bias_constraint": null}, "name": "conv2d_225", "inbound_nodes": [[["activation_224", 0, 0, {}]]]}, {"class_name": "BatchNormalization", "config": {"name": "batch_normalization_222", "trainable": false, "dtype": "float32", "axis": [3], "momentum": 0.99, "epsilon": 0.001, "center": true, "scale": false, "beta_initializer": {"class_name": "Zeros", "config": {}}, "gamma_initializer": {"class_name": "Ones", "config": {}}, "moving_mean_initializer": {"class_name": "Zeros", "config": {}}, "moving_variance_initializer": {"class_name": "Ones", "config": {}}, "beta_regularizer": null, "gamma_regularizer": null, "beta_constraint": null, "gamma_constraint": null}, "name": "batch_normalization_222", "inbound_nodes": [[["conv2d_222", 0, 0, {}]]]}, {"class_name": "BatchNormalization", "config": {"name": "batch_normalization_225", "trainable": false, "dtype": "float32", "axis": [3], "momentum": 0.99, "epsilon": 0.001, "center": true, "scale": false, "beta_initializer": {"class_name": "Zeros", "config": {}}, "gamma_initializer": {"class_name": "Ones", "config": {}}, "moving_mean_initializer": {"class_name": "Zeros", "config": {}}, "moving_variance_initializer": {"class_name": "Ones", "config": {}}, "beta_regularizer": null, "gamma_regularizer": null, "beta_constraint": null, "gamma_constraint": null}, "name": "batch_normalization_225", "inbound_nodes": [[["conv2d_225", 0, 0, {}]]]}, {"class_name": "Activation", "config": {"name": "activation_222", "trainable": false, "dtype": "float32", "activation": "relu"}, "name": "activation_222", "inbound_nodes": [[["batch_normalization_222", 0, 0, {}]]]}, {"class_name": "Activation", "config": {"name": "activation_225", "trainable": false, "dtype": "float32", "activation": "relu"}, "name": "activation_225", "inbound_nodes": [[["batch_normalization_225", 0, 0, {}]]]}, {"class_name": "Conv2D", "config": {"name": "conv2d_221", "trainable": false, "dtype": "float32", "filters": 32, "kernel_size": [1, 1], "strides": [1, 1], "padding": "same", "data_format": "channels_last", "dilation_rate": [1, 1], "groups": 1, "activation": "linear", "use_bias": false, "kernel_initializer": {"class_name": "GlorotUniform", "config": {"seed": null}}, "bias_initializer": {"class_name": "Zeros", "config": {}}, "kernel_regularizer": null, "bias_regularizer": null, "activity_regularizer": null, "kernel_constraint": null, "bias_constraint": null}, "name": "conv2d_221", "inbound_nodes": [[["block35_1_ac", 0, 0, {}]]]}, {"class_name": "Conv2D", "config": {"name": "conv2d_223", "trainable": false, "dtype": "float32", "filters": 32, "kernel_size": [3, 3], "strides": [1, 1], "padding": "same", "data_format": "channels_last", "dilation_rate": [1, 1], "groups": 1, "activation": "linear", "use_bias": false, "kernel_initializer": {"class_name": "GlorotUniform", "config": {"seed": null}}, "bias_initializer": {"class_name": "Zeros", "config": {}}, "kernel_regularizer": null, "bias_regularizer": null, "activity_regularizer": null, "kernel_constraint": null, "bias_constraint": null}, "name": "conv2d_223", "inbound_nodes": [[["activation_222", 0, 0, {}]]]}, {"class_name": "Conv2D", "config": {"name": "conv2d_226", "trainable": false, "dtype": "float32", "filters": 64, "kernel_size": [3, 3], "strides": [1, 1], "padding": "same", "data_format": "channels_last", "dilation_rate": [1, 1], "groups": 1, "activation": "linear", "use_bias": false, "kernel_initializer": {"class_name": "GlorotUniform", "config": {"seed": null}}, "bias_initializer": {"class_name": "Zeros", "config": {}}, "kernel_regularizer": null, "bias_regularizer": null, "activity_regularizer": null, "kernel_constraint": null, "bias_constraint": null}, "name": "conv2d_226", "inbound_nodes": [[["activation_225", 0, 0, {}]]]}, {"class_name": "BatchNormalization", "config": {"name": "batch_normalization_221", "trainable": false, "dtype": "float32", "axis": [3], "momentum": 0.99, "epsilon": 0.001, "center": true, "scale": false, "beta_initializer": {"class_name": "Zeros", "config": {}}, "gamma_initializer": {"class_name": "Ones", "config": {}}, "moving_mean_initializer": {"class_name": "Zeros", "config": {}}, "moving_variance_initializer": {"class_name": "Ones", "config": {}}, "beta_regularizer": null, "gamma_regularizer": null, "beta_constraint": null, "gamma_constraint": null}, "name": "batch_normalization_221", "inbound_nodes": [[["conv2d_221", 0, 0, {}]]]}, {"class_name": "BatchNormalization", "config": {"name": "batch_normalization_223", "trainable": false, "dtype": "float32", "axis": [3], "momentum": 0.99, "epsilon": 0.001, "center": true, "scale": false, "beta_initializer": {"class_name": "Zeros", "config": {}}, "gamma_initializer": {"class_name": "Ones", "config": {}}, "moving_mean_initializer": {"class_name": "Zeros", "config": {}}, "moving_variance_initializer": {"class_name": "Ones", "config": {}}, "beta_regularizer": null, "gamma_regularizer": null, "beta_constraint": null, "gamma_constraint": null}, "name": "batch_normalization_223", "inbound_nodes": [[["conv2d_223", 0, 0, {}]]]}, {"class_name": "BatchNormalization", "config": {"name": "batch_normalization_226", "trainable": false, "dtype": "float32", "axis": [3], "momentum": 0.99, "epsilon": 0.001, "center": true, "scale": false, "beta_initializer": {"class_name": "Zeros", "config": {}}, "gamma_initializer": {"class_name": "Ones", "config": {}}, "moving_mean_initializer": {"class_name": "Zeros", "config": {}}, "moving_variance_initializer": {"class_name": "Ones", "config": {}}, "beta_regularizer": null, "gamma_regularizer": null, "beta_constraint": null, "gamma_constraint": null}, "name": "batch_normalization_226", "inbound_nodes": [[["conv2d_226", 0, 0, {}]]]}, {"class_name": "Activation", "config": {"name": "activation_221", "trainable": false, "dtype": "float32", "activation": "relu"}, "name": "activation_221", "inbound_nodes": [[["batch_normalization_221", 0, 0, {}]]]}, {"class_name": "Activation", "config": {"name": "activation_223", "trainable": false, "dtype": "float32", "activation": "relu"}, "name": "activation_223", "inbound_nodes": [[["batch_normalization_223", 0, 0, {}]]]}, {"class_name": "Activation", "config": {"name": "activation_226", "trainable": false, "dtype": "float32", "activation": "relu"}, "name": "activation_226", "inbound_nodes": [[["batch_normalization_226", 0, 0, {}]]]}, {"class_name": "Concatenate", "config": {"name": "block35_2_mixed", "trainable": false, "dtype": "float32", "axis": 3}, "name": "block35_2_mixed", "inbound_nodes": [[["activation_221", 0, 0, {}], ["activation_223", 0, 0, {}], ["activation_226", 0, 0, {}]]]}, {"class_name": "Conv2D", "config": {"name": "block35_2_conv", "trainable": false, "dtype": "float32", "filters": 320, "kernel_size": [1, 1], "strides": [1, 1], "padding": "same", "data_format": "channels_last", "dilation_rate": [1, 1], "groups": 1, "activation": "linear", "use_bias": true, "kernel_initializer": {"class_name": "GlorotUniform", "config": {"seed": null}}, "bias_initializer": {"class_name": "Zeros", "config": {}}, "kernel_regularizer": null, "bias_regularizer": null, "activity_regularizer": null, "kernel_constraint": null, "bias_constraint": null}, "name": "block35_2_conv", "inbound_nodes": [[["block35_2_mixed", 0, 0, {}]]]}, {"class_name": "Lambda", "config": {"name": "block35_2", "trainable": false, "dtype": "float32", "function": ["4wIAAAAAAAAAAAAAAAIAAAADAAAAUwAAAHMUAAAAfABkARkAfABkAhkAfAEUABcAUwApA07pAAAA\nAOkBAAAAqQApAtoGaW5wdXRz2gVzY2FsZXIDAAAAcgMAAAD6ckM6L1VzZXJzL0luZHJhL2FuYWNv\nbmRhMy9lbnZzL3RmLWdwdS9saWIvc2l0ZS1wYWNrYWdlcy90ZW5zb3JmbG93L3B5dGhvbi9rZXJh\ncy9hcHBsaWNhdGlvbnMvaW5jZXB0aW9uX3Jlc25ldF92Mi5wedoIPGxhbWJkYT5xAQAA8wAAAAA=\n", null, null], "function_type": "lambda", "module": "tensorflow.python.keras.applications.inception_resnet_v2", "output_shape": [29, 29, 320], "output_shape_type": "raw", "output_shape_module": null, "arguments": {"scale": 0.17}}, "name": "block35_2", "inbound_nodes": [[["block35_1_ac", 0, 0, {}], ["block35_2_conv", 0, 0, {}]]]}, {"class_name": "Activation", "config": {"name": "block35_2_ac", "trainable": false, "dtype": "float32", "activation": "relu"}, "name": "block35_2_ac", "inbound_nodes": [[["block35_2", 0, 0, {}]]]}, {"class_name": "Conv2D", "config": {"name": "conv2d_230", "trainable": false, "dtype": "float32", "filters": 32, "kernel_size": [1, 1], "strides": [1, 1], "padding": "same", "data_format": "channels_last", "dilation_rate": [1, 1], "groups": 1, "activation": "linear", "use_bias": false, "kernel_initializer": {"class_name": "GlorotUniform", "config": {"seed": null}}, "bias_initializer": {"class_name": "Zeros", "config": {}}, "kernel_regularizer": null, "bias_regularizer": null, "activity_regularizer": null, "kernel_constraint": null, "bias_constraint": null}, "name": "conv2d_230", "inbound_nodes": [[["block35_2_ac", 0, 0, {}]]]}, {"class_name": "BatchNormalization", "config": {"name": "batch_normalization_230", "trainable": false, "dtype": "float32", "axis": [3], "momentum": 0.99, "epsilon": 0.001, "center": true, "scale": false, "beta_initializer": {"class_name": "Zeros", "config": {}}, "gamma_initializer": {"class_name": "Ones", "config": {}}, "moving_mean_initializer": {"class_name": "Zeros", "config": {}}, "moving_variance_initializer": {"class_name": "Ones", "config": {}}, "beta_regularizer": null, "gamma_regularizer": null, "beta_constraint": null, "gamma_constraint": null}, "name": "batch_normalization_230", "inbound_nodes": [[["conv2d_230", 0, 0, {}]]]}, {"class_name": "Activation", "config": {"name": "activation_230", "trainable": false, "dtype": "float32", "activation": "relu"}, "name": "activation_230", "inbound_nodes": [[["batch_normalization_230", 0, 0, {}]]]}, {"class_name": "Conv2D", "config": {"name": "conv2d_228", "trainable": false, "dtype": "float32", "filters": 32, "kernel_size": [1, 1], "strides": [1, 1], "padding": "same", "data_format": "channels_last", "dilation_rate": [1, 1], "groups": 1, "activation": "linear", "use_bias": false, "kernel_initializer": {"class_name": "GlorotUniform", "config": {"seed": null}}, "bias_initializer": {"class_name": "Zeros", "config": {}}, "kernel_regularizer": null, "bias_regularizer": null, "activity_regularizer": null, "kernel_constraint": null, "bias_constraint": null}, "name": "conv2d_228", "inbound_nodes": [[["block35_2_ac", 0, 0, {}]]]}, {"class_name": "Conv2D", "config": {"name": "conv2d_231", "trainable": false, "dtype": "float32", "filters": 48, "kernel_size": [3, 3], "strides": [1, 1], "padding": "same", "data_format": "channels_last", "dilation_rate": [1, 1], "groups": 1, "activation": "linear", "use_bias": false, "kernel_initializer": {"class_name": "GlorotUniform", "config": {"seed": null}}, "bias_initializer": {"class_name": "Zeros", "config": {}}, "kernel_regularizer": null, "bias_regularizer": null, "activity_regularizer": null, "kernel_constraint": null, "bias_constraint": null}, "name": "conv2d_231", "inbound_nodes": [[["activation_230", 0, 0, {}]]]}, {"class_name": "BatchNormalization", "config": {"name": "batch_normalization_228", "trainable": false, "dtype": "float32", "axis": [3], "momentum": 0.99, "epsilon": 0.001, "center": true, "scale": false, "beta_initializer": {"class_name": "Zeros", "config": {}}, "gamma_initializer": {"class_name": "Ones", "config": {}}, "moving_mean_initializer": {"class_name": "Zeros", "config": {}}, "moving_variance_initializer": {"class_name": "Ones", "config": {}}, "beta_regularizer": null, "gamma_regularizer": null, "beta_constraint": null, "gamma_constraint": null}, "name": "batch_normalization_228", "inbound_nodes": [[["conv2d_228", 0, 0, {}]]]}, {"class_name": "BatchNormalization", "config": {"name": "batch_normalization_231", "trainable": false, "dtype": "float32", "axis": [3], "momentum": 0.99, "epsilon": 0.001, "center": true, "scale": false, "beta_initializer": {"class_name": "Zeros", "config": {}}, "gamma_initializer": {"class_name": "Ones", "config": {}}, "moving_mean_initializer": {"class_name": "Zeros", "config": {}}, "moving_variance_initializer": {"class_name": "Ones", "config": {}}, "beta_regularizer": null, "gamma_regularizer": null, "beta_constraint": null, "gamma_constraint": null}, "name": "batch_normalization_231", "inbound_nodes": [[["conv2d_231", 0, 0, {}]]]}, {"class_name": "Activation", "config": {"name": "activation_228", "trainable": false, "dtype": "float32", "activation": "relu"}, "name": "activation_228", "inbound_nodes": [[["batch_normalization_228", 0, 0, {}]]]}, {"class_name": "Activation", "config": {"name": "activation_231", "trainable": false, "dtype": "float32", "activation": "relu"}, "name": "activation_231", "inbound_nodes": [[["batch_normalization_231", 0, 0, {}]]]}, {"class_name": "Conv2D", "config": {"name": "conv2d_227", "trainable": false, "dtype": "float32", "filters": 32, "kernel_size": [1, 1], "strides": [1, 1], "padding": "same", "data_format": "channels_last", "dilation_rate": [1, 1], "groups": 1, "activation": "linear", "use_bias": false, "kernel_initializer": {"class_name": "GlorotUniform", "config": {"seed": null}}, "bias_initializer": {"class_name": "Zeros", "config": {}}, "kernel_regularizer": null, "bias_regularizer": null, "activity_regularizer": null, "kernel_constraint": null, "bias_constraint": null}, "name": "conv2d_227", "inbound_nodes": [[["block35_2_ac", 0, 0, {}]]]}, {"class_name": "Conv2D", "config": {"name": "conv2d_229", "trainable": false, "dtype": "float32", "filters": 32, "kernel_size": [3, 3], "strides": [1, 1], "padding": "same", "data_format": "channels_last", "dilation_rate": [1, 1], "groups": 1, "activation": "linear", "use_bias": false, "kernel_initializer": {"class_name": "GlorotUniform", "config": {"seed": null}}, "bias_initializer": {"class_name": "Zeros", "config": {}}, "kernel_regularizer": null, "bias_regularizer": null, "activity_regularizer": null, "kernel_constraint": null, "bias_constraint": null}, "name": "conv2d_229", "inbound_nodes": [[["activation_228", 0, 0, {}]]]}, {"class_name": "Conv2D", "config": {"name": "conv2d_232", "trainable": false, "dtype": "float32", "filters": 64, "kernel_size": [3, 3], "strides": [1, 1], "padding": "same", "data_format": "channels_last", "dilation_rate": [1, 1], "groups": 1, "activation": "linear", "use_bias": false, "kernel_initializer": {"class_name": "GlorotUniform", "config": {"seed": null}}, "bias_initializer": {"class_name": "Zeros", "config": {}}, "kernel_regularizer": null, "bias_regularizer": null, "activity_regularizer": null, "kernel_constraint": null, "bias_constraint": null}, "name": "conv2d_232", "inbound_nodes": [[["activation_231", 0, 0, {}]]]}, {"class_name": "BatchNormalization", "config": {"name": "batch_normalization_227", "trainable": false, "dtype": "float32", "axis": [3], "momentum": 0.99, "epsilon": 0.001, "center": true, "scale": false, "beta_initializer": {"class_name": "Zeros", "config": {}}, "gamma_initializer": {"class_name": "Ones", "config": {}}, "moving_mean_initializer": {"class_name": "Zeros", "config": {}}, "moving_variance_initializer": {"class_name": "Ones", "config": {}}, "beta_regularizer": null, "gamma_regularizer": null, "beta_constraint": null, "gamma_constraint": null}, "name": "batch_normalization_227", "inbound_nodes": [[["conv2d_227", 0, 0, {}]]]}, {"class_name": "BatchNormalization", "config": {"name": "batch_normalization_229", "trainable": false, "dtype": "float32", "axis": [3], "momentum": 0.99, "epsilon": 0.001, "center": true, "scale": false, "beta_initializer": {"class_name": "Zeros", "config": {}}, "gamma_initializer": {"class_name": "Ones", "config": {}}, "moving_mean_initializer": {"class_name": "Zeros", "config": {}}, "moving_variance_initializer": {"class_name": "Ones", "config": {}}, "beta_regularizer": null, "gamma_regularizer": null, "beta_constraint": null, "gamma_constraint": null}, "name": "batch_normalization_229", "inbound_nodes": [[["conv2d_229", 0, 0, {}]]]}, {"class_name": "BatchNormalization", "config": {"name": "batch_normalization_232", "trainable": false, "dtype": "float32", "axis": [3], "momentum": 0.99, "epsilon": 0.001, "center": true, "scale": false, "beta_initializer": {"class_name": "Zeros", "config": {}}, "gamma_initializer": {"class_name": "Ones", "config": {}}, "moving_mean_initializer": {"class_name": "Zeros", "config": {}}, "moving_variance_initializer": {"class_name": "Ones", "config": {}}, "beta_regularizer": null, "gamma_regularizer": null, "beta_constraint": null, "gamma_constraint": null}, "name": "batch_normalization_232", "inbound_nodes": [[["conv2d_232", 0, 0, {}]]]}, {"class_name": "Activation", "config": {"name": "activation_227", "trainable": false, "dtype": "float32", "activation": "relu"}, "name": "activation_227", "inbound_nodes": [[["batch_normalization_227", 0, 0, {}]]]}, {"class_name": "Activation", "config": {"name": "activation_229", "trainable": false, "dtype": "float32", "activation": "relu"}, "name": "activation_229", "inbound_nodes": [[["batch_normalization_229", 0, 0, {}]]]}, {"class_name": "Activation", "config": {"name": "activation_232", "trainable": false, "dtype": "float32", "activation": "relu"}, "name": "activation_232", "inbound_nodes": [[["batch_normalization_232", 0, 0, {}]]]}, {"class_name": "Concatenate", "config": {"name": "block35_3_mixed", "trainable": false, "dtype": "float32", "axis": 3}, "name": "block35_3_mixed", "inbound_nodes": [[["activation_227", 0, 0, {}], ["activation_229", 0, 0, {}], ["activation_232", 0, 0, {}]]]}, {"class_name": "Conv2D", "config": {"name": "block35_3_conv", "trainable": false, "dtype": "float32", "filters": 320, "kernel_size": [1, 1], "strides": [1, 1], "padding": "same", "data_format": "channels_last", "dilation_rate": [1, 1], "groups": 1, "activation": "linear", "use_bias": true, "kernel_initializer": {"class_name": "GlorotUniform", "config": {"seed": null}}, "bias_initializer": {"class_name": "Zeros", "config": {}}, "kernel_regularizer": null, "bias_regularizer": null, "activity_regularizer": null, "kernel_constraint": null, "bias_constraint": null}, "name": "block35_3_conv", "inbound_nodes": [[["block35_3_mixed", 0, 0, {}]]]}, {"class_name": "Lambda", "config": {"name": "block35_3", "trainable": false, "dtype": "float32", "function": ["4wIAAAAAAAAAAAAAAAIAAAADAAAAUwAAAHMUAAAAfABkARkAfABkAhkAfAEUABcAUwApA07pAAAA\nAOkBAAAAqQApAtoGaW5wdXRz2gVzY2FsZXIDAAAAcgMAAAD6ckM6L1VzZXJzL0luZHJhL2FuYWNv\nbmRhMy9lbnZzL3RmLWdwdS9saWIvc2l0ZS1wYWNrYWdlcy90ZW5zb3JmbG93L3B5dGhvbi9rZXJh\ncy9hcHBsaWNhdGlvbnMvaW5jZXB0aW9uX3Jlc25ldF92Mi5wedoIPGxhbWJkYT5xAQAA8wAAAAA=\n", null, null], "function_type": "lambda", "module": "tensorflow.python.keras.applications.inception_resnet_v2", "output_shape": [29, 29, 320], "output_shape_type": "raw", "output_shape_module": null, "arguments": {"scale": 0.17}}, "name": "block35_3", "inbound_nodes": [[["block35_2_ac", 0, 0, {}], ["block35_3_conv", 0, 0, {}]]]}, {"class_name": "Activation", "config": {"name": "block35_3_ac", "trainable": false, "dtype": "float32", "activation": "relu"}, "name": "block35_3_ac", "inbound_nodes": [[["block35_3", 0, 0, {}]]]}, {"class_name": "Conv2D", "config": {"name": "conv2d_236", "trainable": false, "dtype": "float32", "filters": 32, "kernel_size": [1, 1], "strides": [1, 1], "padding": "same", "data_format": "channels_last", "dilation_rate": [1, 1], "groups": 1, "activation": "linear", "use_bias": false, "kernel_initializer": {"class_name": "GlorotUniform", "config": {"seed": null}}, "bias_initializer": {"class_name": "Zeros", "config": {}}, "kernel_regularizer": null, "bias_regularizer": null, "activity_regularizer": null, "kernel_constraint": null, "bias_constraint": null}, "name": "conv2d_236", "inbound_nodes": [[["block35_3_ac", 0, 0, {}]]]}, {"class_name": "BatchNormalization", "config": {"name": "batch_normalization_236", "trainable": false, "dtype": "float32", "axis": [3], "momentum": 0.99, "epsilon": 0.001, "center": true, "scale": false, "beta_initializer": {"class_name": "Zeros", "config": {}}, "gamma_initializer": {"class_name": "Ones", "config": {}}, "moving_mean_initializer": {"class_name": "Zeros", "config": {}}, "moving_variance_initializer": {"class_name": "Ones", "config": {}}, "beta_regularizer": null, "gamma_regularizer": null, "beta_constraint": null, "gamma_constraint": null}, "name": "batch_normalization_236", "inbound_nodes": [[["conv2d_236", 0, 0, {}]]]}, {"class_name": "Activation", "config": {"name": "activation_236", "trainable": false, "dtype": "float32", "activation": "relu"}, "name": "activation_236", "inbound_nodes": [[["batch_normalization_236", 0, 0, {}]]]}, {"class_name": "Conv2D", "config": {"name": "conv2d_234", "trainable": false, "dtype": "float32", "filters": 32, "kernel_size": [1, 1], "strides": [1, 1], "padding": "same", "data_format": "channels_last", "dilation_rate": [1, 1], "groups": 1, "activation": "linear", "use_bias": false, "kernel_initializer": {"class_name": "GlorotUniform", "config": {"seed": null}}, "bias_initializer": {"class_name": "Zeros", "config": {}}, "kernel_regularizer": null, "bias_regularizer": null, "activity_regularizer": null, "kernel_constraint": null, "bias_constraint": null}, "name": "conv2d_234", "inbound_nodes": [[["block35_3_ac", 0, 0, {}]]]}, {"class_name": "Conv2D", "config": {"name": "conv2d_237", "trainable": false, "dtype": "float32", "filters": 48, "kernel_size": [3, 3], "strides": [1, 1], "padding": "same", "data_format": "channels_last", "dilation_rate": [1, 1], "groups": 1, "activation": "linear", "use_bias": false, "kernel_initializer": {"class_name": "GlorotUniform", "config": {"seed": null}}, "bias_initializer": {"class_name": "Zeros", "config": {}}, "kernel_regularizer": null, "bias_regularizer": null, "activity_regularizer": null, "kernel_constraint": null, "bias_constraint": null}, "name": "conv2d_237", "inbound_nodes": [[["activation_236", 0, 0, {}]]]}, {"class_name": "BatchNormalization", "config": {"name": "batch_normalization_234", "trainable": false, "dtype": "float32", "axis": [3], "momentum": 0.99, "epsilon": 0.001, "center": true, "scale": false, "beta_initializer": {"class_name": "Zeros", "config": {}}, "gamma_initializer": {"class_name": "Ones", "config": {}}, "moving_mean_initializer": {"class_name": "Zeros", "config": {}}, "moving_variance_initializer": {"class_name": "Ones", "config": {}}, "beta_regularizer": null, "gamma_regularizer": null, "beta_constraint": null, "gamma_constraint": null}, "name": "batch_normalization_234", "inbound_nodes": [[["conv2d_234", 0, 0, {}]]]}, {"class_name": "BatchNormalization", "config": {"name": "batch_normalization_237", "trainable": false, "dtype": "float32", "axis": [3], "momentum": 0.99, "epsilon": 0.001, "center": true, "scale": false, "beta_initializer": {"class_name": "Zeros", "config": {}}, "gamma_initializer": {"class_name": "Ones", "config": {}}, "moving_mean_initializer": {"class_name": "Zeros", "config": {}}, "moving_variance_initializer": {"class_name": "Ones", "config": {}}, "beta_regularizer": null, "gamma_regularizer": null, "beta_constraint": null, "gamma_constraint": null}, "name": "batch_normalization_237", "inbound_nodes": [[["conv2d_237", 0, 0, {}]]]}, {"class_name": "Activation", "config": {"name": "activation_234", "trainable": false, "dtype": "float32", "activation": "relu"}, "name": "activation_234", "inbound_nodes": [[["batch_normalization_234", 0, 0, {}]]]}, {"class_name": "Activation", "config": {"name": "activation_237", "trainable": false, "dtype": "float32", "activation": "relu"}, "name": "activation_237", "inbound_nodes": [[["batch_normalization_237", 0, 0, {}]]]}, {"class_name": "Conv2D", "config": {"name": "conv2d_233", "trainable": false, "dtype": "float32", "filters": 32, "kernel_size": [1, 1], "strides": [1, 1], "padding": "same", "data_format": "channels_last", "dilation_rate": [1, 1], "groups": 1, "activation": "linear", "use_bias": false, "kernel_initializer": {"class_name": "GlorotUniform", "config": {"seed": null}}, "bias_initializer": {"class_name": "Zeros", "config": {}}, "kernel_regularizer": null, "bias_regularizer": null, "activity_regularizer": null, "kernel_constraint": null, "bias_constraint": null}, "name": "conv2d_233", "inbound_nodes": [[["block35_3_ac", 0, 0, {}]]]}, {"class_name": "Conv2D", "config": {"name": "conv2d_235", "trainable": false, "dtype": "float32", "filters": 32, "kernel_size": [3, 3], "strides": [1, 1], "padding": "same", "data_format": "channels_last", "dilation_rate": [1, 1], "groups": 1, "activation": "linear", "use_bias": false, "kernel_initializer": {"class_name": "GlorotUniform", "config": {"seed": null}}, "bias_initializer": {"class_name": "Zeros", "config": {}}, "kernel_regularizer": null, "bias_regularizer": null, "activity_regularizer": null, "kernel_constraint": null, "bias_constraint": null}, "name": "conv2d_235", "inbound_nodes": [[["activation_234", 0, 0, {}]]]}, {"class_name": "Conv2D", "config": {"name": "conv2d_238", "trainable": false, "dtype": "float32", "filters": 64, "kernel_size": [3, 3], "strides": [1, 1], "padding": "same", "data_format": "channels_last", "dilation_rate": [1, 1], "groups": 1, "activation": "linear", "use_bias": false, "kernel_initializer": {"class_name": "GlorotUniform", "config": {"seed": null}}, "bias_initializer": {"class_name": "Zeros", "config": {}}, "kernel_regularizer": null, "bias_regularizer": null, "activity_regularizer": null, "kernel_constraint": null, "bias_constraint": null}, "name": "conv2d_238", "inbound_nodes": [[["activation_237", 0, 0, {}]]]}, {"class_name": "BatchNormalization", "config": {"name": "batch_normalization_233", "trainable": false, "dtype": "float32", "axis": [3], "momentum": 0.99, "epsilon": 0.001, "center": true, "scale": false, "beta_initializer": {"class_name": "Zeros", "config": {}}, "gamma_initializer": {"class_name": "Ones", "config": {}}, "moving_mean_initializer": {"class_name": "Zeros", "config": {}}, "moving_variance_initializer": {"class_name": "Ones", "config": {}}, "beta_regularizer": null, "gamma_regularizer": null, "beta_constraint": null, "gamma_constraint": null}, "name": "batch_normalization_233", "inbound_nodes": [[["conv2d_233", 0, 0, {}]]]}, {"class_name": "BatchNormalization", "config": {"name": "batch_normalization_235", "trainable": false, "dtype": "float32", "axis": [3], "momentum": 0.99, "epsilon": 0.001, "center": true, "scale": false, "beta_initializer": {"class_name": "Zeros", "config": {}}, "gamma_initializer": {"class_name": "Ones", "config": {}}, "moving_mean_initializer": {"class_name": "Zeros", "config": {}}, "moving_variance_initializer": {"class_name": "Ones", "config": {}}, "beta_regularizer": null, "gamma_regularizer": null, "beta_constraint": null, "gamma_constraint": null}, "name": "batch_normalization_235", "inbound_nodes": [[["conv2d_235", 0, 0, {}]]]}, {"class_name": "BatchNormalization", "config": {"name": "batch_normalization_238", "trainable": false, "dtype": "float32", "axis": [3], "momentum": 0.99, "epsilon": 0.001, "center": true, "scale": false, "beta_initializer": {"class_name": "Zeros", "config": {}}, "gamma_initializer": {"class_name": "Ones", "config": {}}, "moving_mean_initializer": {"class_name": "Zeros", "config": {}}, "moving_variance_initializer": {"class_name": "Ones", "config": {}}, "beta_regularizer": null, "gamma_regularizer": null, "beta_constraint": null, "gamma_constraint": null}, "name": "batch_normalization_238", "inbound_nodes": [[["conv2d_238", 0, 0, {}]]]}, {"class_name": "Activation", "config": {"name": "activation_233", "trainable": false, "dtype": "float32", "activation": "relu"}, "name": "activation_233", "inbound_nodes": [[["batch_normalization_233", 0, 0, {}]]]}, {"class_name": "Activation", "config": {"name": "activation_235", "trainable": false, "dtype": "float32", "activation": "relu"}, "name": "activation_235", "inbound_nodes": [[["batch_normalization_235", 0, 0, {}]]]}, {"class_name": "Activation", "config": {"name": "activation_238", "trainable": false, "dtype": "float32", "activation": "relu"}, "name": "activation_238", "inbound_nodes": [[["batch_normalization_238", 0, 0, {}]]]}, {"class_name": "Concatenate", "config": {"name": "block35_4_mixed", "trainable": false, "dtype": "float32", "axis": 3}, "name": "block35_4_mixed", "inbound_nodes": [[["activation_233", 0, 0, {}], ["activation_235", 0, 0, {}], ["activation_238", 0, 0, {}]]]}, {"class_name": "Conv2D", "config": {"name": "block35_4_conv", "trainable": false, "dtype": "float32", "filters": 320, "kernel_size": [1, 1], "strides": [1, 1], "padding": "same", "data_format": "channels_last", "dilation_rate": [1, 1], "groups": 1, "activation": "linear", "use_bias": true, "kernel_initializer": {"class_name": "GlorotUniform", "config": {"seed": null}}, "bias_initializer": {"class_name": "Zeros", "config": {}}, "kernel_regularizer": null, "bias_regularizer": null, "activity_regularizer": null, "kernel_constraint": null, "bias_constraint": null}, "name": "block35_4_conv", "inbound_nodes": [[["block35_4_mixed", 0, 0, {}]]]}, {"class_name": "Lambda", "config": {"name": "block35_4", "trainable": false, "dtype": "float32", "function": ["4wIAAAAAAAAAAAAAAAIAAAADAAAAUwAAAHMUAAAAfABkARkAfABkAhkAfAEUABcAUwApA07pAAAA\nAOkBAAAAqQApAtoGaW5wdXRz2gVzY2FsZXIDAAAAcgMAAAD6ckM6L1VzZXJzL0luZHJhL2FuYWNv\nbmRhMy9lbnZzL3RmLWdwdS9saWIvc2l0ZS1wYWNrYWdlcy90ZW5zb3JmbG93L3B5dGhvbi9rZXJh\ncy9hcHBsaWNhdGlvbnMvaW5jZXB0aW9uX3Jlc25ldF92Mi5wedoIPGxhbWJkYT5xAQAA8wAAAAA=\n", null, null], "function_type": "lambda", "module": "tensorflow.python.keras.applications.inception_resnet_v2", "output_shape": [29, 29, 320], "output_shape_type": "raw", "output_shape_module": null, "arguments": {"scale": 0.17}}, "name": "block35_4", "inbound_nodes": [[["block35_3_ac", 0, 0, {}], ["block35_4_conv", 0, 0, {}]]]}, {"class_name": "Activation", "config": {"name": "block35_4_ac", "trainable": false, "dtype": "float32", "activation": "relu"}, "name": "block35_4_ac", "inbound_nodes": [[["block35_4", 0, 0, {}]]]}, {"class_name": "Conv2D", "config": {"name": "conv2d_242", "trainable": false, "dtype": "float32", "filters": 32, "kernel_size": [1, 1], "strides": [1, 1], "padding": "same", "data_format": "channels_last", "dilation_rate": [1, 1], "groups": 1, "activation": "linear", "use_bias": false, "kernel_initializer": {"class_name": "GlorotUniform", "config": {"seed": null}}, "bias_initializer": {"class_name": "Zeros", "config": {}}, "kernel_regularizer": null, "bias_regularizer": null, "activity_regularizer": null, "kernel_constraint": null, "bias_constraint": null}, "name": "conv2d_242", "inbound_nodes": [[["block35_4_ac", 0, 0, {}]]]}, {"class_name": "BatchNormalization", "config": {"name": "batch_normalization_242", "trainable": false, "dtype": "float32", "axis": [3], "momentum": 0.99, "epsilon": 0.001, "center": true, "scale": false, "beta_initializer": {"class_name": "Zeros", "config": {}}, "gamma_initializer": {"class_name": "Ones", "config": {}}, "moving_mean_initializer": {"class_name": "Zeros", "config": {}}, "moving_variance_initializer": {"class_name": "Ones", "config": {}}, "beta_regularizer": null, "gamma_regularizer": null, "beta_constraint": null, "gamma_constraint": null}, "name": "batch_normalization_242", "inbound_nodes": [[["conv2d_242", 0, 0, {}]]]}, {"class_name": "Activation", "config": {"name": "activation_242", "trainable": false, "dtype": "float32", "activation": "relu"}, "name": "activation_242", "inbound_nodes": [[["batch_normalization_242", 0, 0, {}]]]}, {"class_name": "Conv2D", "config": {"name": "conv2d_240", "trainable": false, "dtype": "float32", "filters": 32, "kernel_size": [1, 1], "strides": [1, 1], "padding": "same", "data_format": "channels_last", "dilation_rate": [1, 1], "groups": 1, "activation": "linear", "use_bias": false, "kernel_initializer": {"class_name": "GlorotUniform", "config": {"seed": null}}, "bias_initializer": {"class_name": "Zeros", "config": {}}, "kernel_regularizer": null, "bias_regularizer": null, "activity_regularizer": null, "kernel_constraint": null, "bias_constraint": null}, "name": "conv2d_240", "inbound_nodes": [[["block35_4_ac", 0, 0, {}]]]}, {"class_name": "Conv2D", "config": {"name": "conv2d_243", "trainable": false, "dtype": "float32", "filters": 48, "kernel_size": [3, 3], "strides": [1, 1], "padding": "same", "data_format": "channels_last", "dilation_rate": [1, 1], "groups": 1, "activation": "linear", "use_bias": false, "kernel_initializer": {"class_name": "GlorotUniform", "config": {"seed": null}}, "bias_initializer": {"class_name": "Zeros", "config": {}}, "kernel_regularizer": null, "bias_regularizer": null, "activity_regularizer": null, "kernel_constraint": null, "bias_constraint": null}, "name": "conv2d_243", "inbound_nodes": [[["activation_242", 0, 0, {}]]]}, {"class_name": "BatchNormalization", "config": {"name": "batch_normalization_240", "trainable": false, "dtype": "float32", "axis": [3], "momentum": 0.99, "epsilon": 0.001, "center": true, "scale": false, "beta_initializer": {"class_name": "Zeros", "config": {}}, "gamma_initializer": {"class_name": "Ones", "config": {}}, "moving_mean_initializer": {"class_name": "Zeros", "config": {}}, "moving_variance_initializer": {"class_name": "Ones", "config": {}}, "beta_regularizer": null, "gamma_regularizer": null, "beta_constraint": null, "gamma_constraint": null}, "name": "batch_normalization_240", "inbound_nodes": [[["conv2d_240", 0, 0, {}]]]}, {"class_name": "BatchNormalization", "config": {"name": "batch_normalization_243", "trainable": false, "dtype": "float32", "axis": [3], "momentum": 0.99, "epsilon": 0.001, "center": true, "scale": false, "beta_initializer": {"class_name": "Zeros", "config": {}}, "gamma_initializer": {"class_name": "Ones", "config": {}}, "moving_mean_initializer": {"class_name": "Zeros", "config": {}}, "moving_variance_initializer": {"class_name": "Ones", "config": {}}, "beta_regularizer": null, "gamma_regularizer": null, "beta_constraint": null, "gamma_constraint": null}, "name": "batch_normalization_243", "inbound_nodes": [[["conv2d_243", 0, 0, {}]]]}, {"class_name": "Activation", "config": {"name": "activation_240", "trainable": false, "dtype": "float32", "activation": "relu"}, "name": "activation_240", "inbound_nodes": [[["batch_normalization_240", 0, 0, {}]]]}, {"class_name": "Activation", "config": {"name": "activation_243", "trainable": false, "dtype": "float32", "activation": "relu"}, "name": "activation_243", "inbound_nodes": [[["batch_normalization_243", 0, 0, {}]]]}, {"class_name": "Conv2D", "config": {"name": "conv2d_239", "trainable": false, "dtype": "float32", "filters": 32, "kernel_size": [1, 1], "strides": [1, 1], "padding": "same", "data_format": "channels_last", "dilation_rate": [1, 1], "groups": 1, "activation": "linear", "use_bias": false, "kernel_initializer": {"class_name": "GlorotUniform", "config": {"seed": null}}, "bias_initializer": {"class_name": "Zeros", "config": {}}, "kernel_regularizer": null, "bias_regularizer": null, "activity_regularizer": null, "kernel_constraint": null, "bias_constraint": null}, "name": "conv2d_239", "inbound_nodes": [[["block35_4_ac", 0, 0, {}]]]}, {"class_name": "Conv2D", "config": {"name": "conv2d_241", "trainable": false, "dtype": "float32", "filters": 32, "kernel_size": [3, 3], "strides": [1, 1], "padding": "same", "data_format": "channels_last", "dilation_rate": [1, 1], "groups": 1, "activation": "linear", "use_bias": false, "kernel_initializer": {"class_name": "GlorotUniform", "config": {"seed": null}}, "bias_initializer": {"class_name": "Zeros", "config": {}}, "kernel_regularizer": null, "bias_regularizer": null, "activity_regularizer": null, "kernel_constraint": null, "bias_constraint": null}, "name": "conv2d_241", "inbound_nodes": [[["activation_240", 0, 0, {}]]]}, {"class_name": "Conv2D", "config": {"name": "conv2d_244", "trainable": false, "dtype": "float32", "filters": 64, "kernel_size": [3, 3], "strides": [1, 1], "padding": "same", "data_format": "channels_last", "dilation_rate": [1, 1], "groups": 1, "activation": "linear", "use_bias": false, "kernel_initializer": {"class_name": "GlorotUniform", "config": {"seed": null}}, "bias_initializer": {"class_name": "Zeros", "config": {}}, "kernel_regularizer": null, "bias_regularizer": null, "activity_regularizer": null, "kernel_constraint": null, "bias_constraint": null}, "name": "conv2d_244", "inbound_nodes": [[["activation_243", 0, 0, {}]]]}, {"class_name": "BatchNormalization", "config": {"name": "batch_normalization_239", "trainable": false, "dtype": "float32", "axis": [3], "momentum": 0.99, "epsilon": 0.001, "center": true, "scale": false, "beta_initializer": {"class_name": "Zeros", "config": {}}, "gamma_initializer": {"class_name": "Ones", "config": {}}, "moving_mean_initializer": {"class_name": "Zeros", "config": {}}, "moving_variance_initializer": {"class_name": "Ones", "config": {}}, "beta_regularizer": null, "gamma_regularizer": null, "beta_constraint": null, "gamma_constraint": null}, "name": "batch_normalization_239", "inbound_nodes": [[["conv2d_239", 0, 0, {}]]]}, {"class_name": "BatchNormalization", "config": {"name": "batch_normalization_241", "trainable": false, "dtype": "float32", "axis": [3], "momentum": 0.99, "epsilon": 0.001, "center": true, "scale": false, "beta_initializer": {"class_name": "Zeros", "config": {}}, "gamma_initializer": {"class_name": "Ones", "config": {}}, "moving_mean_initializer": {"class_name": "Zeros", "config": {}}, "moving_variance_initializer": {"class_name": "Ones", "config": {}}, "beta_regularizer": null, "gamma_regularizer": null, "beta_constraint": null, "gamma_constraint": null}, "name": "batch_normalization_241", "inbound_nodes": [[["conv2d_241", 0, 0, {}]]]}, {"class_name": "BatchNormalization", "config": {"name": "batch_normalization_244", "trainable": false, "dtype": "float32", "axis": [3], "momentum": 0.99, "epsilon": 0.001, "center": true, "scale": false, "beta_initializer": {"class_name": "Zeros", "config": {}}, "gamma_initializer": {"class_name": "Ones", "config": {}}, "moving_mean_initializer": {"class_name": "Zeros", "config": {}}, "moving_variance_initializer": {"class_name": "Ones", "config": {}}, "beta_regularizer": null, "gamma_regularizer": null, "beta_constraint": null, "gamma_constraint": null}, "name": "batch_normalization_244", "inbound_nodes": [[["conv2d_244", 0, 0, {}]]]}, {"class_name": "Activation", "config": {"name": "activation_239", "trainable": false, "dtype": "float32", "activation": "relu"}, "name": "activation_239", "inbound_nodes": [[["batch_normalization_239", 0, 0, {}]]]}, {"class_name": "Activation", "config": {"name": "activation_241", "trainable": false, "dtype": "float32", "activation": "relu"}, "name": "activation_241", "inbound_nodes": [[["batch_normalization_241", 0, 0, {}]]]}, {"class_name": "Activation", "config": {"name": "activation_244", "trainable": false, "dtype": "float32", "activation": "relu"}, "name": "activation_244", "inbound_nodes": [[["batch_normalization_244", 0, 0, {}]]]}, {"class_name": "Concatenate", "config": {"name": "block35_5_mixed", "trainable": false, "dtype": "float32", "axis": 3}, "name": "block35_5_mixed", "inbound_nodes": [[["activation_239", 0, 0, {}], ["activation_241", 0, 0, {}], ["activation_244", 0, 0, {}]]]}, {"class_name": "Conv2D", "config": {"name": "block35_5_conv", "trainable": false, "dtype": "float32", "filters": 320, "kernel_size": [1, 1], "strides": [1, 1], "padding": "same", "data_format": "channels_last", "dilation_rate": [1, 1], "groups": 1, "activation": "linear", "use_bias": true, "kernel_initializer": {"class_name": "GlorotUniform", "config": {"seed": null}}, "bias_initializer": {"class_name": "Zeros", "config": {}}, "kernel_regularizer": null, "bias_regularizer": null, "activity_regularizer": null, "kernel_constraint": null, "bias_constraint": null}, "name": "block35_5_conv", "inbound_nodes": [[["block35_5_mixed", 0, 0, {}]]]}, {"class_name": "Lambda", "config": {"name": "block35_5", "trainable": false, "dtype": "float32", "function": ["4wIAAAAAAAAAAAAAAAIAAAADAAAAUwAAAHMUAAAAfABkARkAfABkAhkAfAEUABcAUwApA07pAAAA\nAOkBAAAAqQApAtoGaW5wdXRz2gVzY2FsZXIDAAAAcgMAAAD6ckM6L1VzZXJzL0luZHJhL2FuYWNv\nbmRhMy9lbnZzL3RmLWdwdS9saWIvc2l0ZS1wYWNrYWdlcy90ZW5zb3JmbG93L3B5dGhvbi9rZXJh\ncy9hcHBsaWNhdGlvbnMvaW5jZXB0aW9uX3Jlc25ldF92Mi5wedoIPGxhbWJkYT5xAQAA8wAAAAA=\n", null, null], "function_type": "lambda", "module": "tensorflow.python.keras.applications.inception_resnet_v2", "output_shape": [29, 29, 320], "output_shape_type": "raw", "output_shape_module": null, "arguments": {"scale": 0.17}}, "name": "block35_5", "inbound_nodes": [[["block35_4_ac", 0, 0, {}], ["block35_5_conv", 0, 0, {}]]]}, {"class_name": "Activation", "config": {"name": "block35_5_ac", "trainable": false, "dtype": "float32", "activation": "relu"}, "name": "block35_5_ac", "inbound_nodes": [[["block35_5", 0, 0, {}]]]}, {"class_name": "Conv2D", "config": {"name": "conv2d_248", "trainable": false, "dtype": "float32", "filters": 32, "kernel_size": [1, 1], "strides": [1, 1], "padding": "same", "data_format": "channels_last", "dilation_rate": [1, 1], "groups": 1, "activation": "linear", "use_bias": false, "kernel_initializer": {"class_name": "GlorotUniform", "config": {"seed": null}}, "bias_initializer": {"class_name": "Zeros", "config": {}}, "kernel_regularizer": null, "bias_regularizer": null, "activity_regularizer": null, "kernel_constraint": null, "bias_constraint": null}, "name": "conv2d_248", "inbound_nodes": [[["block35_5_ac", 0, 0, {}]]]}, {"class_name": "BatchNormalization", "config": {"name": "batch_normalization_248", "trainable": false, "dtype": "float32", "axis": [3], "momentum": 0.99, "epsilon": 0.001, "center": true, "scale": false, "beta_initializer": {"class_name": "Zeros", "config": {}}, "gamma_initializer": {"class_name": "Ones", "config": {}}, "moving_mean_initializer": {"class_name": "Zeros", "config": {}}, "moving_variance_initializer": {"class_name": "Ones", "config": {}}, "beta_regularizer": null, "gamma_regularizer": null, "beta_constraint": null, "gamma_constraint": null}, "name": "batch_normalization_248", "inbound_nodes": [[["conv2d_248", 0, 0, {}]]]}, {"class_name": "Activation", "config": {"name": "activation_248", "trainable": false, "dtype": "float32", "activation": "relu"}, "name": "activation_248", "inbound_nodes": [[["batch_normalization_248", 0, 0, {}]]]}, {"class_name": "Conv2D", "config": {"name": "conv2d_246", "trainable": false, "dtype": "float32", "filters": 32, "kernel_size": [1, 1], "strides": [1, 1], "padding": "same", "data_format": "channels_last", "dilation_rate": [1, 1], "groups": 1, "activation": "linear", "use_bias": false, "kernel_initializer": {"class_name": "GlorotUniform", "config": {"seed": null}}, "bias_initializer": {"class_name": "Zeros", "config": {}}, "kernel_regularizer": null, "bias_regularizer": null, "activity_regularizer": null, "kernel_constraint": null, "bias_constraint": null}, "name": "conv2d_246", "inbound_nodes": [[["block35_5_ac", 0, 0, {}]]]}, {"class_name": "Conv2D", "config": {"name": "conv2d_249", "trainable": false, "dtype": "float32", "filters": 48, "kernel_size": [3, 3], "strides": [1, 1], "padding": "same", "data_format": "channels_last", "dilation_rate": [1, 1], "groups": 1, "activation": "linear", "use_bias": false, "kernel_initializer": {"class_name": "GlorotUniform", "config": {"seed": null}}, "bias_initializer": {"class_name": "Zeros", "config": {}}, "kernel_regularizer": null, "bias_regularizer": null, "activity_regularizer": null, "kernel_constraint": null, "bias_constraint": null}, "name": "conv2d_249", "inbound_nodes": [[["activation_248", 0, 0, {}]]]}, {"class_name": "BatchNormalization", "config": {"name": "batch_normalization_246", "trainable": false, "dtype": "float32", "axis": [3], "momentum": 0.99, "epsilon": 0.001, "center": true, "scale": false, "beta_initializer": {"class_name": "Zeros", "config": {}}, "gamma_initializer": {"class_name": "Ones", "config": {}}, "moving_mean_initializer": {"class_name": "Zeros", "config": {}}, "moving_variance_initializer": {"class_name": "Ones", "config": {}}, "beta_regularizer": null, "gamma_regularizer": null, "beta_constraint": null, "gamma_constraint": null}, "name": "batch_normalization_246", "inbound_nodes": [[["conv2d_246", 0, 0, {}]]]}, {"class_name": "BatchNormalization", "config": {"name": "batch_normalization_249", "trainable": false, "dtype": "float32", "axis": [3], "momentum": 0.99, "epsilon": 0.001, "center": true, "scale": false, "beta_initializer": {"class_name": "Zeros", "config": {}}, "gamma_initializer": {"class_name": "Ones", "config": {}}, "moving_mean_initializer": {"class_name": "Zeros", "config": {}}, "moving_variance_initializer": {"class_name": "Ones", "config": {}}, "beta_regularizer": null, "gamma_regularizer": null, "beta_constraint": null, "gamma_constraint": null}, "name": "batch_normalization_249", "inbound_nodes": [[["conv2d_249", 0, 0, {}]]]}, {"class_name": "Activation", "config": {"name": "activation_246", "trainable": false, "dtype": "float32", "activation": "relu"}, "name": "activation_246", "inbound_nodes": [[["batch_normalization_246", 0, 0, {}]]]}, {"class_name": "Activation", "config": {"name": "activation_249", "trainable": false, "dtype": "float32", "activation": "relu"}, "name": "activation_249", "inbound_nodes": [[["batch_normalization_249", 0, 0, {}]]]}, {"class_name": "Conv2D", "config": {"name": "conv2d_245", "trainable": false, "dtype": "float32", "filters": 32, "kernel_size": [1, 1], "strides": [1, 1], "padding": "same", "data_format": "channels_last", "dilation_rate": [1, 1], "groups": 1, "activation": "linear", "use_bias": false, "kernel_initializer": {"class_name": "GlorotUniform", "config": {"seed": null}}, "bias_initializer": {"class_name": "Zeros", "config": {}}, "kernel_regularizer": null, "bias_regularizer": null, "activity_regularizer": null, "kernel_constraint": null, "bias_constraint": null}, "name": "conv2d_245", "inbound_nodes": [[["block35_5_ac", 0, 0, {}]]]}, {"class_name": "Conv2D", "config": {"name": "conv2d_247", "trainable": false, "dtype": "float32", "filters": 32, "kernel_size": [3, 3], "strides": [1, 1], "padding": "same", "data_format": "channels_last", "dilation_rate": [1, 1], "groups": 1, "activation": "linear", "use_bias": false, "kernel_initializer": {"class_name": "GlorotUniform", "config": {"seed": null}}, "bias_initializer": {"class_name": "Zeros", "config": {}}, "kernel_regularizer": null, "bias_regularizer": null, "activity_regularizer": null, "kernel_constraint": null, "bias_constraint": null}, "name": "conv2d_247", "inbound_nodes": [[["activation_246", 0, 0, {}]]]}, {"class_name": "Conv2D", "config": {"name": "conv2d_250", "trainable": false, "dtype": "float32", "filters": 64, "kernel_size": [3, 3], "strides": [1, 1], "padding": "same", "data_format": "channels_last", "dilation_rate": [1, 1], "groups": 1, "activation": "linear", "use_bias": false, "kernel_initializer": {"class_name": "GlorotUniform", "config": {"seed": null}}, "bias_initializer": {"class_name": "Zeros", "config": {}}, "kernel_regularizer": null, "bias_regularizer": null, "activity_regularizer": null, "kernel_constraint": null, "bias_constraint": null}, "name": "conv2d_250", "inbound_nodes": [[["activation_249", 0, 0, {}]]]}, {"class_name": "BatchNormalization", "config": {"name": "batch_normalization_245", "trainable": false, "dtype": "float32", "axis": [3], "momentum": 0.99, "epsilon": 0.001, "center": true, "scale": false, "beta_initializer": {"class_name": "Zeros", "config": {}}, "gamma_initializer": {"class_name": "Ones", "config": {}}, "moving_mean_initializer": {"class_name": "Zeros", "config": {}}, "moving_variance_initializer": {"class_name": "Ones", "config": {}}, "beta_regularizer": null, "gamma_regularizer": null, "beta_constraint": null, "gamma_constraint": null}, "name": "batch_normalization_245", "inbound_nodes": [[["conv2d_245", 0, 0, {}]]]}, {"class_name": "BatchNormalization", "config": {"name": "batch_normalization_247", "trainable": false, "dtype": "float32", "axis": [3], "momentum": 0.99, "epsilon": 0.001, "center": true, "scale": false, "beta_initializer": {"class_name": "Zeros", "config": {}}, "gamma_initializer": {"class_name": "Ones", "config": {}}, "moving_mean_initializer": {"class_name": "Zeros", "config": {}}, "moving_variance_initializer": {"class_name": "Ones", "config": {}}, "beta_regularizer": null, "gamma_regularizer": null, "beta_constraint": null, "gamma_constraint": null}, "name": "batch_normalization_247", "inbound_nodes": [[["conv2d_247", 0, 0, {}]]]}, {"class_name": "BatchNormalization", "config": {"name": "batch_normalization_250", "trainable": false, "dtype": "float32", "axis": [3], "momentum": 0.99, "epsilon": 0.001, "center": true, "scale": false, "beta_initializer": {"class_name": "Zeros", "config": {}}, "gamma_initializer": {"class_name": "Ones", "config": {}}, "moving_mean_initializer": {"class_name": "Zeros", "config": {}}, "moving_variance_initializer": {"class_name": "Ones", "config": {}}, "beta_regularizer": null, "gamma_regularizer": null, "beta_constraint": null, "gamma_constraint": null}, "name": "batch_normalization_250", "inbound_nodes": [[["conv2d_250", 0, 0, {}]]]}, {"class_name": "Activation", "config": {"name": "activation_245", "trainable": false, "dtype": "float32", "activation": "relu"}, "name": "activation_245", "inbound_nodes": [[["batch_normalization_245", 0, 0, {}]]]}, {"class_name": "Activation", "config": {"name": "activation_247", "trainable": false, "dtype": "float32", "activation": "relu"}, "name": "activation_247", "inbound_nodes": [[["batch_normalization_247", 0, 0, {}]]]}, {"class_name": "Activation", "config": {"name": "activation_250", "trainable": false, "dtype": "float32", "activation": "relu"}, "name": "activation_250", "inbound_nodes": [[["batch_normalization_250", 0, 0, {}]]]}, {"class_name": "Concatenate", "config": {"name": "block35_6_mixed", "trainable": false, "dtype": "float32", "axis": 3}, "name": "block35_6_mixed", "inbound_nodes": [[["activation_245", 0, 0, {}], ["activation_247", 0, 0, {}], ["activation_250", 0, 0, {}]]]}, {"class_name": "Conv2D", "config": {"name": "block35_6_conv", "trainable": false, "dtype": "float32", "filters": 320, "kernel_size": [1, 1], "strides": [1, 1], "padding": "same", "data_format": "channels_last", "dilation_rate": [1, 1], "groups": 1, "activation": "linear", "use_bias": true, "kernel_initializer": {"class_name": "GlorotUniform", "config": {"seed": null}}, "bias_initializer": {"class_name": "Zeros", "config": {}}, "kernel_regularizer": null, "bias_regularizer": null, "activity_regularizer": null, "kernel_constraint": null, "bias_constraint": null}, "name": "block35_6_conv", "inbound_nodes": [[["block35_6_mixed", 0, 0, {}]]]}, {"class_name": "Lambda", "config": {"name": "block35_6", "trainable": false, "dtype": "float32", "function": ["4wIAAAAAAAAAAAAAAAIAAAADAAAAUwAAAHMUAAAAfABkARkAfABkAhkAfAEUABcAUwApA07pAAAA\nAOkBAAAAqQApAtoGaW5wdXRz2gVzY2FsZXIDAAAAcgMAAAD6ckM6L1VzZXJzL0luZHJhL2FuYWNv\nbmRhMy9lbnZzL3RmLWdwdS9saWIvc2l0ZS1wYWNrYWdlcy90ZW5zb3JmbG93L3B5dGhvbi9rZXJh\ncy9hcHBsaWNhdGlvbnMvaW5jZXB0aW9uX3Jlc25ldF92Mi5wedoIPGxhbWJkYT5xAQAA8wAAAAA=\n", null, null], "function_type": "lambda", "module": "tensorflow.python.keras.applications.inception_resnet_v2", "output_shape": [29, 29, 320], "output_shape_type": "raw", "output_shape_module": null, "arguments": {"scale": 0.17}}, "name": "block35_6", "inbound_nodes": [[["block35_5_ac", 0, 0, {}], ["block35_6_conv", 0, 0, {}]]]}, {"class_name": "Activation", "config": {"name": "block35_6_ac", "trainable": false, "dtype": "float32", "activation": "relu"}, "name": "block35_6_ac", "inbound_nodes": [[["block35_6", 0, 0, {}]]]}, {"class_name": "Conv2D", "config": {"name": "conv2d_254", "trainable": false, "dtype": "float32", "filters": 32, "kernel_size": [1, 1], "strides": [1, 1], "padding": "same", "data_format": "channels_last", "dilation_rate": [1, 1], "groups": 1, "activation": "linear", "use_bias": false, "kernel_initializer": {"class_name": "GlorotUniform", "config": {"seed": null}}, "bias_initializer": {"class_name": "Zeros", "config": {}}, "kernel_regularizer": null, "bias_regularizer": null, "activity_regularizer": null, "kernel_constraint": null, "bias_constraint": null}, "name": "conv2d_254", "inbound_nodes": [[["block35_6_ac", 0, 0, {}]]]}, {"class_name": "BatchNormalization", "config": {"name": "batch_normalization_254", "trainable": false, "dtype": "float32", "axis": [3], "momentum": 0.99, "epsilon": 0.001, "center": true, "scale": false, "beta_initializer": {"class_name": "Zeros", "config": {}}, "gamma_initializer": {"class_name": "Ones", "config": {}}, "moving_mean_initializer": {"class_name": "Zeros", "config": {}}, "moving_variance_initializer": {"class_name": "Ones", "config": {}}, "beta_regularizer": null, "gamma_regularizer": null, "beta_constraint": null, "gamma_constraint": null}, "name": "batch_normalization_254", "inbound_nodes": [[["conv2d_254", 0, 0, {}]]]}, {"class_name": "Activation", "config": {"name": "activation_254", "trainable": false, "dtype": "float32", "activation": "relu"}, "name": "activation_254", "inbound_nodes": [[["batch_normalization_254", 0, 0, {}]]]}, {"class_name": "Conv2D", "config": {"name": "conv2d_252", "trainable": false, "dtype": "float32", "filters": 32, "kernel_size": [1, 1], "strides": [1, 1], "padding": "same", "data_format": "channels_last", "dilation_rate": [1, 1], "groups": 1, "activation": "linear", "use_bias": false, "kernel_initializer": {"class_name": "GlorotUniform", "config": {"seed": null}}, "bias_initializer": {"class_name": "Zeros", "config": {}}, "kernel_regularizer": null, "bias_regularizer": null, "activity_regularizer": null, "kernel_constraint": null, "bias_constraint": null}, "name": "conv2d_252", "inbound_nodes": [[["block35_6_ac", 0, 0, {}]]]}, {"class_name": "Conv2D", "config": {"name": "conv2d_255", "trainable": false, "dtype": "float32", "filters": 48, "kernel_size": [3, 3], "strides": [1, 1], "padding": "same", "data_format": "channels_last", "dilation_rate": [1, 1], "groups": 1, "activation": "linear", "use_bias": false, "kernel_initializer": {"class_name": "GlorotUniform", "config": {"seed": null}}, "bias_initializer": {"class_name": "Zeros", "config": {}}, "kernel_regularizer": null, "bias_regularizer": null, "activity_regularizer": null, "kernel_constraint": null, "bias_constraint": null}, "name": "conv2d_255", "inbound_nodes": [[["activation_254", 0, 0, {}]]]}, {"class_name": "BatchNormalization", "config": {"name": "batch_normalization_252", "trainable": false, "dtype": "float32", "axis": [3], "momentum": 0.99, "epsilon": 0.001, "center": true, "scale": false, "beta_initializer": {"class_name": "Zeros", "config": {}}, "gamma_initializer": {"class_name": "Ones", "config": {}}, "moving_mean_initializer": {"class_name": "Zeros", "config": {}}, "moving_variance_initializer": {"class_name": "Ones", "config": {}}, "beta_regularizer": null, "gamma_regularizer": null, "beta_constraint": null, "gamma_constraint": null}, "name": "batch_normalization_252", "inbound_nodes": [[["conv2d_252", 0, 0, {}]]]}, {"class_name": "BatchNormalization", "config": {"name": "batch_normalization_255", "trainable": false, "dtype": "float32", "axis": [3], "momentum": 0.99, "epsilon": 0.001, "center": true, "scale": false, "beta_initializer": {"class_name": "Zeros", "config": {}}, "gamma_initializer": {"class_name": "Ones", "config": {}}, "moving_mean_initializer": {"class_name": "Zeros", "config": {}}, "moving_variance_initializer": {"class_name": "Ones", "config": {}}, "beta_regularizer": null, "gamma_regularizer": null, "beta_constraint": null, "gamma_constraint": null}, "name": "batch_normalization_255", "inbound_nodes": [[["conv2d_255", 0, 0, {}]]]}, {"class_name": "Activation", "config": {"name": "activation_252", "trainable": false, "dtype": "float32", "activation": "relu"}, "name": "activation_252", "inbound_nodes": [[["batch_normalization_252", 0, 0, {}]]]}, {"class_name": "Activation", "config": {"name": "activation_255", "trainable": false, "dtype": "float32", "activation": "relu"}, "name": "activation_255", "inbound_nodes": [[["batch_normalization_255", 0, 0, {}]]]}, {"class_name": "Conv2D", "config": {"name": "conv2d_251", "trainable": false, "dtype": "float32", "filters": 32, "kernel_size": [1, 1], "strides": [1, 1], "padding": "same", "data_format": "channels_last", "dilation_rate": [1, 1], "groups": 1, "activation": "linear", "use_bias": false, "kernel_initializer": {"class_name": "GlorotUniform", "config": {"seed": null}}, "bias_initializer": {"class_name": "Zeros", "config": {}}, "kernel_regularizer": null, "bias_regularizer": null, "activity_regularizer": null, "kernel_constraint": null, "bias_constraint": null}, "name": "conv2d_251", "inbound_nodes": [[["block35_6_ac", 0, 0, {}]]]}, {"class_name": "Conv2D", "config": {"name": "conv2d_253", "trainable": false, "dtype": "float32", "filters": 32, "kernel_size": [3, 3], "strides": [1, 1], "padding": "same", "data_format": "channels_last", "dilation_rate": [1, 1], "groups": 1, "activation": "linear", "use_bias": false, "kernel_initializer": {"class_name": "GlorotUniform", "config": {"seed": null}}, "bias_initializer": {"class_name": "Zeros", "config": {}}, "kernel_regularizer": null, "bias_regularizer": null, "activity_regularizer": null, "kernel_constraint": null, "bias_constraint": null}, "name": "conv2d_253", "inbound_nodes": [[["activation_252", 0, 0, {}]]]}, {"class_name": "Conv2D", "config": {"name": "conv2d_256", "trainable": false, "dtype": "float32", "filters": 64, "kernel_size": [3, 3], "strides": [1, 1], "padding": "same", "data_format": "channels_last", "dilation_rate": [1, 1], "groups": 1, "activation": "linear", "use_bias": false, "kernel_initializer": {"class_name": "GlorotUniform", "config": {"seed": null}}, "bias_initializer": {"class_name": "Zeros", "config": {}}, "kernel_regularizer": null, "bias_regularizer": null, "activity_regularizer": null, "kernel_constraint": null, "bias_constraint": null}, "name": "conv2d_256", "inbound_nodes": [[["activation_255", 0, 0, {}]]]}, {"class_name": "BatchNormalization", "config": {"name": "batch_normalization_251", "trainable": false, "dtype": "float32", "axis": [3], "momentum": 0.99, "epsilon": 0.001, "center": true, "scale": false, "beta_initializer": {"class_name": "Zeros", "config": {}}, "gamma_initializer": {"class_name": "Ones", "config": {}}, "moving_mean_initializer": {"class_name": "Zeros", "config": {}}, "moving_variance_initializer": {"class_name": "Ones", "config": {}}, "beta_regularizer": null, "gamma_regularizer": null, "beta_constraint": null, "gamma_constraint": null}, "name": "batch_normalization_251", "inbound_nodes": [[["conv2d_251", 0, 0, {}]]]}, {"class_name": "BatchNormalization", "config": {"name": "batch_normalization_253", "trainable": false, "dtype": "float32", "axis": [3], "momentum": 0.99, "epsilon": 0.001, "center": true, "scale": false, "beta_initializer": {"class_name": "Zeros", "config": {}}, "gamma_initializer": {"class_name": "Ones", "config": {}}, "moving_mean_initializer": {"class_name": "Zeros", "config": {}}, "moving_variance_initializer": {"class_name": "Ones", "config": {}}, "beta_regularizer": null, "gamma_regularizer": null, "beta_constraint": null, "gamma_constraint": null}, "name": "batch_normalization_253", "inbound_nodes": [[["conv2d_253", 0, 0, {}]]]}, {"class_name": "BatchNormalization", "config": {"name": "batch_normalization_256", "trainable": false, "dtype": "float32", "axis": [3], "momentum": 0.99, "epsilon": 0.001, "center": true, "scale": false, "beta_initializer": {"class_name": "Zeros", "config": {}}, "gamma_initializer": {"class_name": "Ones", "config": {}}, "moving_mean_initializer": {"class_name": "Zeros", "config": {}}, "moving_variance_initializer": {"class_name": "Ones", "config": {}}, "beta_regularizer": null, "gamma_regularizer": null, "beta_constraint": null, "gamma_constraint": null}, "name": "batch_normalization_256", "inbound_nodes": [[["conv2d_256", 0, 0, {}]]]}, {"class_name": "Activation", "config": {"name": "activation_251", "trainable": false, "dtype": "float32", "activation": "relu"}, "name": "activation_251", "inbound_nodes": [[["batch_normalization_251", 0, 0, {}]]]}, {"class_name": "Activation", "config": {"name": "activation_253", "trainable": false, "dtype": "float32", "activation": "relu"}, "name": "activation_253", "inbound_nodes": [[["batch_normalization_253", 0, 0, {}]]]}, {"class_name": "Activation", "config": {"name": "activation_256", "trainable": false, "dtype": "float32", "activation": "relu"}, "name": "activation_256", "inbound_nodes": [[["batch_normalization_256", 0, 0, {}]]]}, {"class_name": "Concatenate", "config": {"name": "block35_7_mixed", "trainable": false, "dtype": "float32", "axis": 3}, "name": "block35_7_mixed", "inbound_nodes": [[["activation_251", 0, 0, {}], ["activation_253", 0, 0, {}], ["activation_256", 0, 0, {}]]]}, {"class_name": "Conv2D", "config": {"name": "block35_7_conv", "trainable": false, "dtype": "float32", "filters": 320, "kernel_size": [1, 1], "strides": [1, 1], "padding": "same", "data_format": "channels_last", "dilation_rate": [1, 1], "groups": 1, "activation": "linear", "use_bias": true, "kernel_initializer": {"class_name": "GlorotUniform", "config": {"seed": null}}, "bias_initializer": {"class_name": "Zeros", "config": {}}, "kernel_regularizer": null, "bias_regularizer": null, "activity_regularizer": null, "kernel_constraint": null, "bias_constraint": null}, "name": "block35_7_conv", "inbound_nodes": [[["block35_7_mixed", 0, 0, {}]]]}, {"class_name": "Lambda", "config": {"name": "block35_7", "trainable": false, "dtype": "float32", "function": ["4wIAAAAAAAAAAAAAAAIAAAADAAAAUwAAAHMUAAAAfABkARkAfABkAhkAfAEUABcAUwApA07pAAAA\nAOkBAAAAqQApAtoGaW5wdXRz2gVzY2FsZXIDAAAAcgMAAAD6ckM6L1VzZXJzL0luZHJhL2FuYWNv\nbmRhMy9lbnZzL3RmLWdwdS9saWIvc2l0ZS1wYWNrYWdlcy90ZW5zb3JmbG93L3B5dGhvbi9rZXJh\ncy9hcHBsaWNhdGlvbnMvaW5jZXB0aW9uX3Jlc25ldF92Mi5wedoIPGxhbWJkYT5xAQAA8wAAAAA=\n", null, null], "function_type": "lambda", "module": "tensorflow.python.keras.applications.inception_resnet_v2", "output_shape": [29, 29, 320], "output_shape_type": "raw", "output_shape_module": null, "arguments": {"scale": 0.17}}, "name": "block35_7", "inbound_nodes": [[["block35_6_ac", 0, 0, {}], ["block35_7_conv", 0, 0, {}]]]}, {"class_name": "Activation", "config": {"name": "block35_7_ac", "trainable": false, "dtype": "float32", "activation": "relu"}, "name": "block35_7_ac", "inbound_nodes": [[["block35_7", 0, 0, {}]]]}, {"class_name": "Conv2D", "config": {"name": "conv2d_260", "trainable": false, "dtype": "float32", "filters": 32, "kernel_size": [1, 1], "strides": [1, 1], "padding": "same", "data_format": "channels_last", "dilation_rate": [1, 1], "groups": 1, "activation": "linear", "use_bias": false, "kernel_initializer": {"class_name": "GlorotUniform", "config": {"seed": null}}, "bias_initializer": {"class_name": "Zeros", "config": {}}, "kernel_regularizer": null, "bias_regularizer": null, "activity_regularizer": null, "kernel_constraint": null, "bias_constraint": null}, "name": "conv2d_260", "inbound_nodes": [[["block35_7_ac", 0, 0, {}]]]}, {"class_name": "BatchNormalization", "config": {"name": "batch_normalization_260", "trainable": false, "dtype": "float32", "axis": [3], "momentum": 0.99, "epsilon": 0.001, "center": true, "scale": false, "beta_initializer": {"class_name": "Zeros", "config": {}}, "gamma_initializer": {"class_name": "Ones", "config": {}}, "moving_mean_initializer": {"class_name": "Zeros", "config": {}}, "moving_variance_initializer": {"class_name": "Ones", "config": {}}, "beta_regularizer": null, "gamma_regularizer": null, "beta_constraint": null, "gamma_constraint": null}, "name": "batch_normalization_260", "inbound_nodes": [[["conv2d_260", 0, 0, {}]]]}, {"class_name": "Activation", "config": {"name": "activation_260", "trainable": false, "dtype": "float32", "activation": "relu"}, "name": "activation_260", "inbound_nodes": [[["batch_normalization_260", 0, 0, {}]]]}, {"class_name": "Conv2D", "config": {"name": "conv2d_258", "trainable": false, "dtype": "float32", "filters": 32, "kernel_size": [1, 1], "strides": [1, 1], "padding": "same", "data_format": "channels_last", "dilation_rate": [1, 1], "groups": 1, "activation": "linear", "use_bias": false, "kernel_initializer": {"class_name": "GlorotUniform", "config": {"seed": null}}, "bias_initializer": {"class_name": "Zeros", "config": {}}, "kernel_regularizer": null, "bias_regularizer": null, "activity_regularizer": null, "kernel_constraint": null, "bias_constraint": null}, "name": "conv2d_258", "inbound_nodes": [[["block35_7_ac", 0, 0, {}]]]}, {"class_name": "Conv2D", "config": {"name": "conv2d_261", "trainable": false, "dtype": "float32", "filters": 48, "kernel_size": [3, 3], "strides": [1, 1], "padding": "same", "data_format": "channels_last", "dilation_rate": [1, 1], "groups": 1, "activation": "linear", "use_bias": false, "kernel_initializer": {"class_name": "GlorotUniform", "config": {"seed": null}}, "bias_initializer": {"class_name": "Zeros", "config": {}}, "kernel_regularizer": null, "bias_regularizer": null, "activity_regularizer": null, "kernel_constraint": null, "bias_constraint": null}, "name": "conv2d_261", "inbound_nodes": [[["activation_260", 0, 0, {}]]]}, {"class_name": "BatchNormalization", "config": {"name": "batch_normalization_258", "trainable": false, "dtype": "float32", "axis": [3], "momentum": 0.99, "epsilon": 0.001, "center": true, "scale": false, "beta_initializer": {"class_name": "Zeros", "config": {}}, "gamma_initializer": {"class_name": "Ones", "config": {}}, "moving_mean_initializer": {"class_name": "Zeros", "config": {}}, "moving_variance_initializer": {"class_name": "Ones", "config": {}}, "beta_regularizer": null, "gamma_regularizer": null, "beta_constraint": null, "gamma_constraint": null}, "name": "batch_normalization_258", "inbound_nodes": [[["conv2d_258", 0, 0, {}]]]}, {"class_name": "BatchNormalization", "config": {"name": "batch_normalization_261", "trainable": false, "dtype": "float32", "axis": [3], "momentum": 0.99, "epsilon": 0.001, "center": true, "scale": false, "beta_initializer": {"class_name": "Zeros", "config": {}}, "gamma_initializer": {"class_name": "Ones", "config": {}}, "moving_mean_initializer": {"class_name": "Zeros", "config": {}}, "moving_variance_initializer": {"class_name": "Ones", "config": {}}, "beta_regularizer": null, "gamma_regularizer": null, "beta_constraint": null, "gamma_constraint": null}, "name": "batch_normalization_261", "inbound_nodes": [[["conv2d_261", 0, 0, {}]]]}, {"class_name": "Activation", "config": {"name": "activation_258", "trainable": false, "dtype": "float32", "activation": "relu"}, "name": "activation_258", "inbound_nodes": [[["batch_normalization_258", 0, 0, {}]]]}, {"class_name": "Activation", "config": {"name": "activation_261", "trainable": false, "dtype": "float32", "activation": "relu"}, "name": "activation_261", "inbound_nodes": [[["batch_normalization_261", 0, 0, {}]]]}, {"class_name": "Conv2D", "config": {"name": "conv2d_257", "trainable": false, "dtype": "float32", "filters": 32, "kernel_size": [1, 1], "strides": [1, 1], "padding": "same", "data_format": "channels_last", "dilation_rate": [1, 1], "groups": 1, "activation": "linear", "use_bias": false, "kernel_initializer": {"class_name": "GlorotUniform", "config": {"seed": null}}, "bias_initializer": {"class_name": "Zeros", "config": {}}, "kernel_regularizer": null, "bias_regularizer": null, "activity_regularizer": null, "kernel_constraint": null, "bias_constraint": null}, "name": "conv2d_257", "inbound_nodes": [[["block35_7_ac", 0, 0, {}]]]}, {"class_name": "Conv2D", "config": {"name": "conv2d_259", "trainable": false, "dtype": "float32", "filters": 32, "kernel_size": [3, 3], "strides": [1, 1], "padding": "same", "data_format": "channels_last", "dilation_rate": [1, 1], "groups": 1, "activation": "linear", "use_bias": false, "kernel_initializer": {"class_name": "GlorotUniform", "config": {"seed": null}}, "bias_initializer": {"class_name": "Zeros", "config": {}}, "kernel_regularizer": null, "bias_regularizer": null, "activity_regularizer": null, "kernel_constraint": null, "bias_constraint": null}, "name": "conv2d_259", "inbound_nodes": [[["activation_258", 0, 0, {}]]]}, {"class_name": "Conv2D", "config": {"name": "conv2d_262", "trainable": false, "dtype": "float32", "filters": 64, "kernel_size": [3, 3], "strides": [1, 1], "padding": "same", "data_format": "channels_last", "dilation_rate": [1, 1], "groups": 1, "activation": "linear", "use_bias": false, "kernel_initializer": {"class_name": "GlorotUniform", "config": {"seed": null}}, "bias_initializer": {"class_name": "Zeros", "config": {}}, "kernel_regularizer": null, "bias_regularizer": null, "activity_regularizer": null, "kernel_constraint": null, "bias_constraint": null}, "name": "conv2d_262", "inbound_nodes": [[["activation_261", 0, 0, {}]]]}, {"class_name": "BatchNormalization", "config": {"name": "batch_normalization_257", "trainable": false, "dtype": "float32", "axis": [3], "momentum": 0.99, "epsilon": 0.001, "center": true, "scale": false, "beta_initializer": {"class_name": "Zeros", "config": {}}, "gamma_initializer": {"class_name": "Ones", "config": {}}, "moving_mean_initializer": {"class_name": "Zeros", "config": {}}, "moving_variance_initializer": {"class_name": "Ones", "config": {}}, "beta_regularizer": null, "gamma_regularizer": null, "beta_constraint": null, "gamma_constraint": null}, "name": "batch_normalization_257", "inbound_nodes": [[["conv2d_257", 0, 0, {}]]]}, {"class_name": "BatchNormalization", "config": {"name": "batch_normalization_259", "trainable": false, "dtype": "float32", "axis": [3], "momentum": 0.99, "epsilon": 0.001, "center": true, "scale": false, "beta_initializer": {"class_name": "Zeros", "config": {}}, "gamma_initializer": {"class_name": "Ones", "config": {}}, "moving_mean_initializer": {"class_name": "Zeros", "config": {}}, "moving_variance_initializer": {"class_name": "Ones", "config": {}}, "beta_regularizer": null, "gamma_regularizer": null, "beta_constraint": null, "gamma_constraint": null}, "name": "batch_normalization_259", "inbound_nodes": [[["conv2d_259", 0, 0, {}]]]}, {"class_name": "BatchNormalization", "config": {"name": "batch_normalization_262", "trainable": false, "dtype": "float32", "axis": [3], "momentum": 0.99, "epsilon": 0.001, "center": true, "scale": false, "beta_initializer": {"class_name": "Zeros", "config": {}}, "gamma_initializer": {"class_name": "Ones", "config": {}}, "moving_mean_initializer": {"class_name": "Zeros", "config": {}}, "moving_variance_initializer": {"class_name": "Ones", "config": {}}, "beta_regularizer": null, "gamma_regularizer": null, "beta_constraint": null, "gamma_constraint": null}, "name": "batch_normalization_262", "inbound_nodes": [[["conv2d_262", 0, 0, {}]]]}, {"class_name": "Activation", "config": {"name": "activation_257", "trainable": false, "dtype": "float32", "activation": "relu"}, "name": "activation_257", "inbound_nodes": [[["batch_normalization_257", 0, 0, {}]]]}, {"class_name": "Activation", "config": {"name": "activation_259", "trainable": false, "dtype": "float32", "activation": "relu"}, "name": "activation_259", "inbound_nodes": [[["batch_normalization_259", 0, 0, {}]]]}, {"class_name": "Activation", "config": {"name": "activation_262", "trainable": false, "dtype": "float32", "activation": "relu"}, "name": "activation_262", "inbound_nodes": [[["batch_normalization_262", 0, 0, {}]]]}, {"class_name": "Concatenate", "config": {"name": "block35_8_mixed", "trainable": false, "dtype": "float32", "axis": 3}, "name": "block35_8_mixed", "inbound_nodes": [[["activation_257", 0, 0, {}], ["activation_259", 0, 0, {}], ["activation_262", 0, 0, {}]]]}, {"class_name": "Conv2D", "config": {"name": "block35_8_conv", "trainable": false, "dtype": "float32", "filters": 320, "kernel_size": [1, 1], "strides": [1, 1], "padding": "same", "data_format": "channels_last", "dilation_rate": [1, 1], "groups": 1, "activation": "linear", "use_bias": true, "kernel_initializer": {"class_name": "GlorotUniform", "config": {"seed": null}}, "bias_initializer": {"class_name": "Zeros", "config": {}}, "kernel_regularizer": null, "bias_regularizer": null, "activity_regularizer": null, "kernel_constraint": null, "bias_constraint": null}, "name": "block35_8_conv", "inbound_nodes": [[["block35_8_mixed", 0, 0, {}]]]}, {"class_name": "Lambda", "config": {"name": "block35_8", "trainable": false, "dtype": "float32", "function": ["4wIAAAAAAAAAAAAAAAIAAAADAAAAUwAAAHMUAAAAfABkARkAfABkAhkAfAEUABcAUwApA07pAAAA\nAOkBAAAAqQApAtoGaW5wdXRz2gVzY2FsZXIDAAAAcgMAAAD6ckM6L1VzZXJzL0luZHJhL2FuYWNv\nbmRhMy9lbnZzL3RmLWdwdS9saWIvc2l0ZS1wYWNrYWdlcy90ZW5zb3JmbG93L3B5dGhvbi9rZXJh\ncy9hcHBsaWNhdGlvbnMvaW5jZXB0aW9uX3Jlc25ldF92Mi5wedoIPGxhbWJkYT5xAQAA8wAAAAA=\n", null, null], "function_type": "lambda", "module": "tensorflow.python.keras.applications.inception_resnet_v2", "output_shape": [29, 29, 320], "output_shape_type": "raw", "output_shape_module": null, "arguments": {"scale": 0.17}}, "name": "block35_8", "inbound_nodes": [[["block35_7_ac", 0, 0, {}], ["block35_8_conv", 0, 0, {}]]]}, {"class_name": "Activation", "config": {"name": "block35_8_ac", "trainable": false, "dtype": "float32", "activation": "relu"}, "name": "block35_8_ac", "inbound_nodes": [[["block35_8", 0, 0, {}]]]}, {"class_name": "Conv2D", "config": {"name": "conv2d_266", "trainable": false, "dtype": "float32", "filters": 32, "kernel_size": [1, 1], "strides": [1, 1], "padding": "same", "data_format": "channels_last", "dilation_rate": [1, 1], "groups": 1, "activation": "linear", "use_bias": false, "kernel_initializer": {"class_name": "GlorotUniform", "config": {"seed": null}}, "bias_initializer": {"class_name": "Zeros", "config": {}}, "kernel_regularizer": null, "bias_regularizer": null, "activity_regularizer": null, "kernel_constraint": null, "bias_constraint": null}, "name": "conv2d_266", "inbound_nodes": [[["block35_8_ac", 0, 0, {}]]]}, {"class_name": "BatchNormalization", "config": {"name": "batch_normalization_266", "trainable": false, "dtype": "float32", "axis": [3], "momentum": 0.99, "epsilon": 0.001, "center": true, "scale": false, "beta_initializer": {"class_name": "Zeros", "config": {}}, "gamma_initializer": {"class_name": "Ones", "config": {}}, "moving_mean_initializer": {"class_name": "Zeros", "config": {}}, "moving_variance_initializer": {"class_name": "Ones", "config": {}}, "beta_regularizer": null, "gamma_regularizer": null, "beta_constraint": null, "gamma_constraint": null}, "name": "batch_normalization_266", "inbound_nodes": [[["conv2d_266", 0, 0, {}]]]}, {"class_name": "Activation", "config": {"name": "activation_266", "trainable": false, "dtype": "float32", "activation": "relu"}, "name": "activation_266", "inbound_nodes": [[["batch_normalization_266", 0, 0, {}]]]}, {"class_name": "Conv2D", "config": {"name": "conv2d_264", "trainable": false, "dtype": "float32", "filters": 32, "kernel_size": [1, 1], "strides": [1, 1], "padding": "same", "data_format": "channels_last", "dilation_rate": [1, 1], "groups": 1, "activation": "linear", "use_bias": false, "kernel_initializer": {"class_name": "GlorotUniform", "config": {"seed": null}}, "bias_initializer": {"class_name": "Zeros", "config": {}}, "kernel_regularizer": null, "bias_regularizer": null, "activity_regularizer": null, "kernel_constraint": null, "bias_constraint": null}, "name": "conv2d_264", "inbound_nodes": [[["block35_8_ac", 0, 0, {}]]]}, {"class_name": "Conv2D", "config": {"name": "conv2d_267", "trainable": false, "dtype": "float32", "filters": 48, "kernel_size": [3, 3], "strides": [1, 1], "padding": "same", "data_format": "channels_last", "dilation_rate": [1, 1], "groups": 1, "activation": "linear", "use_bias": false, "kernel_initializer": {"class_name": "GlorotUniform", "config": {"seed": null}}, "bias_initializer": {"class_name": "Zeros", "config": {}}, "kernel_regularizer": null, "bias_regularizer": null, "activity_regularizer": null, "kernel_constraint": null, "bias_constraint": null}, "name": "conv2d_267", "inbound_nodes": [[["activation_266", 0, 0, {}]]]}, {"class_name": "BatchNormalization", "config": {"name": "batch_normalization_264", "trainable": false, "dtype": "float32", "axis": [3], "momentum": 0.99, "epsilon": 0.001, "center": true, "scale": false, "beta_initializer": {"class_name": "Zeros", "config": {}}, "gamma_initializer": {"class_name": "Ones", "config": {}}, "moving_mean_initializer": {"class_name": "Zeros", "config": {}}, "moving_variance_initializer": {"class_name": "Ones", "config": {}}, "beta_regularizer": null, "gamma_regularizer": null, "beta_constraint": null, "gamma_constraint": null}, "name": "batch_normalization_264", "inbound_nodes": [[["conv2d_264", 0, 0, {}]]]}, {"class_name": "BatchNormalization", "config": {"name": "batch_normalization_267", "trainable": false, "dtype": "float32", "axis": [3], "momentum": 0.99, "epsilon": 0.001, "center": true, "scale": false, "beta_initializer": {"class_name": "Zeros", "config": {}}, "gamma_initializer": {"class_name": "Ones", "config": {}}, "moving_mean_initializer": {"class_name": "Zeros", "config": {}}, "moving_variance_initializer": {"class_name": "Ones", "config": {}}, "beta_regularizer": null, "gamma_regularizer": null, "beta_constraint": null, "gamma_constraint": null}, "name": "batch_normalization_267", "inbound_nodes": [[["conv2d_267", 0, 0, {}]]]}, {"class_name": "Activation", "config": {"name": "activation_264", "trainable": false, "dtype": "float32", "activation": "relu"}, "name": "activation_264", "inbound_nodes": [[["batch_normalization_264", 0, 0, {}]]]}, {"class_name": "Activation", "config": {"name": "activation_267", "trainable": false, "dtype": "float32", "activation": "relu"}, "name": "activation_267", "inbound_nodes": [[["batch_normalization_267", 0, 0, {}]]]}, {"class_name": "Conv2D", "config": {"name": "conv2d_263", "trainable": false, "dtype": "float32", "filters": 32, "kernel_size": [1, 1], "strides": [1, 1], "padding": "same", "data_format": "channels_last", "dilation_rate": [1, 1], "groups": 1, "activation": "linear", "use_bias": false, "kernel_initializer": {"class_name": "GlorotUniform", "config": {"seed": null}}, "bias_initializer": {"class_name": "Zeros", "config": {}}, "kernel_regularizer": null, "bias_regularizer": null, "activity_regularizer": null, "kernel_constraint": null, "bias_constraint": null}, "name": "conv2d_263", "inbound_nodes": [[["block35_8_ac", 0, 0, {}]]]}, {"class_name": "Conv2D", "config": {"name": "conv2d_265", "trainable": false, "dtype": "float32", "filters": 32, "kernel_size": [3, 3], "strides": [1, 1], "padding": "same", "data_format": "channels_last", "dilation_rate": [1, 1], "groups": 1, "activation": "linear", "use_bias": false, "kernel_initializer": {"class_name": "GlorotUniform", "config": {"seed": null}}, "bias_initializer": {"class_name": "Zeros", "config": {}}, "kernel_regularizer": null, "bias_regularizer": null, "activity_regularizer": null, "kernel_constraint": null, "bias_constraint": null}, "name": "conv2d_265", "inbound_nodes": [[["activation_264", 0, 0, {}]]]}, {"class_name": "Conv2D", "config": {"name": "conv2d_268", "trainable": false, "dtype": "float32", "filters": 64, "kernel_size": [3, 3], "strides": [1, 1], "padding": "same", "data_format": "channels_last", "dilation_rate": [1, 1], "groups": 1, "activation": "linear", "use_bias": false, "kernel_initializer": {"class_name": "GlorotUniform", "config": {"seed": null}}, "bias_initializer": {"class_name": "Zeros", "config": {}}, "kernel_regularizer": null, "bias_regularizer": null, "activity_regularizer": null, "kernel_constraint": null, "bias_constraint": null}, "name": "conv2d_268", "inbound_nodes": [[["activation_267", 0, 0, {}]]]}, {"class_name": "BatchNormalization", "config": {"name": "batch_normalization_263", "trainable": false, "dtype": "float32", "axis": [3], "momentum": 0.99, "epsilon": 0.001, "center": true, "scale": false, "beta_initializer": {"class_name": "Zeros", "config": {}}, "gamma_initializer": {"class_name": "Ones", "config": {}}, "moving_mean_initializer": {"class_name": "Zeros", "config": {}}, "moving_variance_initializer": {"class_name": "Ones", "config": {}}, "beta_regularizer": null, "gamma_regularizer": null, "beta_constraint": null, "gamma_constraint": null}, "name": "batch_normalization_263", "inbound_nodes": [[["conv2d_263", 0, 0, {}]]]}, {"class_name": "BatchNormalization", "config": {"name": "batch_normalization_265", "trainable": false, "dtype": "float32", "axis": [3], "momentum": 0.99, "epsilon": 0.001, "center": true, "scale": false, "beta_initializer": {"class_name": "Zeros", "config": {}}, "gamma_initializer": {"class_name": "Ones", "config": {}}, "moving_mean_initializer": {"class_name": "Zeros", "config": {}}, "moving_variance_initializer": {"class_name": "Ones", "config": {}}, "beta_regularizer": null, "gamma_regularizer": null, "beta_constraint": null, "gamma_constraint": null}, "name": "batch_normalization_265", "inbound_nodes": [[["conv2d_265", 0, 0, {}]]]}, {"class_name": "BatchNormalization", "config": {"name": "batch_normalization_268", "trainable": false, "dtype": "float32", "axis": [3], "momentum": 0.99, "epsilon": 0.001, "center": true, "scale": false, "beta_initializer": {"class_name": "Zeros", "config": {}}, "gamma_initializer": {"class_name": "Ones", "config": {}}, "moving_mean_initializer": {"class_name": "Zeros", "config": {}}, "moving_variance_initializer": {"class_name": "Ones", "config": {}}, "beta_regularizer": null, "gamma_regularizer": null, "beta_constraint": null, "gamma_constraint": null}, "name": "batch_normalization_268", "inbound_nodes": [[["conv2d_268", 0, 0, {}]]]}, {"class_name": "Activation", "config": {"name": "activation_263", "trainable": false, "dtype": "float32", "activation": "relu"}, "name": "activation_263", "inbound_nodes": [[["batch_normalization_263", 0, 0, {}]]]}, {"class_name": "Activation", "config": {"name": "activation_265", "trainable": false, "dtype": "float32", "activation": "relu"}, "name": "activation_265", "inbound_nodes": [[["batch_normalization_265", 0, 0, {}]]]}, {"class_name": "Activation", "config": {"name": "activation_268", "trainable": false, "dtype": "float32", "activation": "relu"}, "name": "activation_268", "inbound_nodes": [[["batch_normalization_268", 0, 0, {}]]]}, {"class_name": "Concatenate", "config": {"name": "block35_9_mixed", "trainable": false, "dtype": "float32", "axis": 3}, "name": "block35_9_mixed", "inbound_nodes": [[["activation_263", 0, 0, {}], ["activation_265", 0, 0, {}], ["activation_268", 0, 0, {}]]]}, {"class_name": "Conv2D", "config": {"name": "block35_9_conv", "trainable": false, "dtype": "float32", "filters": 320, "kernel_size": [1, 1], "strides": [1, 1], "padding": "same", "data_format": "channels_last", "dilation_rate": [1, 1], "groups": 1, "activation": "linear", "use_bias": true, "kernel_initializer": {"class_name": "GlorotUniform", "config": {"seed": null}}, "bias_initializer": {"class_name": "Zeros", "config": {}}, "kernel_regularizer": null, "bias_regularizer": null, "activity_regularizer": null, "kernel_constraint": null, "bias_constraint": null}, "name": "block35_9_conv", "inbound_nodes": [[["block35_9_mixed", 0, 0, {}]]]}, {"class_name": "Lambda", "config": {"name": "block35_9", "trainable": false, "dtype": "float32", "function": ["4wIAAAAAAAAAAAAAAAIAAAADAAAAUwAAAHMUAAAAfABkARkAfABkAhkAfAEUABcAUwApA07pAAAA\nAOkBAAAAqQApAtoGaW5wdXRz2gVzY2FsZXIDAAAAcgMAAAD6ckM6L1VzZXJzL0luZHJhL2FuYWNv\nbmRhMy9lbnZzL3RmLWdwdS9saWIvc2l0ZS1wYWNrYWdlcy90ZW5zb3JmbG93L3B5dGhvbi9rZXJh\ncy9hcHBsaWNhdGlvbnMvaW5jZXB0aW9uX3Jlc25ldF92Mi5wedoIPGxhbWJkYT5xAQAA8wAAAAA=\n", null, null], "function_type": "lambda", "module": "tensorflow.python.keras.applications.inception_resnet_v2", "output_shape": [29, 29, 320], "output_shape_type": "raw", "output_shape_module": null, "arguments": {"scale": 0.17}}, "name": "block35_9", "inbound_nodes": [[["block35_8_ac", 0, 0, {}], ["block35_9_conv", 0, 0, {}]]]}, {"class_name": "Activation", "config": {"name": "block35_9_ac", "trainable": false, "dtype": "float32", "activation": "relu"}, "name": "block35_9_ac", "inbound_nodes": [[["block35_9", 0, 0, {}]]]}, {"class_name": "Conv2D", "config": {"name": "conv2d_272", "trainable": false, "dtype": "float32", "filters": 32, "kernel_size": [1, 1], "strides": [1, 1], "padding": "same", "data_format": "channels_last", "dilation_rate": [1, 1], "groups": 1, "activation": "linear", "use_bias": false, "kernel_initializer": {"class_name": "GlorotUniform", "config": {"seed": null}}, "bias_initializer": {"class_name": "Zeros", "config": {}}, "kernel_regularizer": null, "bias_regularizer": null, "activity_regularizer": null, "kernel_constraint": null, "bias_constraint": null}, "name": "conv2d_272", "inbound_nodes": [[["block35_9_ac", 0, 0, {}]]]}, {"class_name": "BatchNormalization", "config": {"name": "batch_normalization_272", "trainable": false, "dtype": "float32", "axis": [3], "momentum": 0.99, "epsilon": 0.001, "center": true, "scale": false, "beta_initializer": {"class_name": "Zeros", "config": {}}, "gamma_initializer": {"class_name": "Ones", "config": {}}, "moving_mean_initializer": {"class_name": "Zeros", "config": {}}, "moving_variance_initializer": {"class_name": "Ones", "config": {}}, "beta_regularizer": null, "gamma_regularizer": null, "beta_constraint": null, "gamma_constraint": null}, "name": "batch_normalization_272", "inbound_nodes": [[["conv2d_272", 0, 0, {}]]]}, {"class_name": "Activation", "config": {"name": "activation_272", "trainable": false, "dtype": "float32", "activation": "relu"}, "name": "activation_272", "inbound_nodes": [[["batch_normalization_272", 0, 0, {}]]]}, {"class_name": "Conv2D", "config": {"name": "conv2d_270", "trainable": false, "dtype": "float32", "filters": 32, "kernel_size": [1, 1], "strides": [1, 1], "padding": "same", "data_format": "channels_last", "dilation_rate": [1, 1], "groups": 1, "activation": "linear", "use_bias": false, "kernel_initializer": {"class_name": "GlorotUniform", "config": {"seed": null}}, "bias_initializer": {"class_name": "Zeros", "config": {}}, "kernel_regularizer": null, "bias_regularizer": null, "activity_regularizer": null, "kernel_constraint": null, "bias_constraint": null}, "name": "conv2d_270", "inbound_nodes": [[["block35_9_ac", 0, 0, {}]]]}, {"class_name": "Conv2D", "config": {"name": "conv2d_273", "trainable": false, "dtype": "float32", "filters": 48, "kernel_size": [3, 3], "strides": [1, 1], "padding": "same", "data_format": "channels_last", "dilation_rate": [1, 1], "groups": 1, "activation": "linear", "use_bias": false, "kernel_initializer": {"class_name": "GlorotUniform", "config": {"seed": null}}, "bias_initializer": {"class_name": "Zeros", "config": {}}, "kernel_regularizer": null, "bias_regularizer": null, "activity_regularizer": null, "kernel_constraint": null, "bias_constraint": null}, "name": "conv2d_273", "inbound_nodes": [[["activation_272", 0, 0, {}]]]}, {"class_name": "BatchNormalization", "config": {"name": "batch_normalization_270", "trainable": false, "dtype": "float32", "axis": [3], "momentum": 0.99, "epsilon": 0.001, "center": true, "scale": false, "beta_initializer": {"class_name": "Zeros", "config": {}}, "gamma_initializer": {"class_name": "Ones", "config": {}}, "moving_mean_initializer": {"class_name": "Zeros", "config": {}}, "moving_variance_initializer": {"class_name": "Ones", "config": {}}, "beta_regularizer": null, "gamma_regularizer": null, "beta_constraint": null, "gamma_constraint": null}, "name": "batch_normalization_270", "inbound_nodes": [[["conv2d_270", 0, 0, {}]]]}, {"class_name": "BatchNormalization", "config": {"name": "batch_normalization_273", "trainable": false, "dtype": "float32", "axis": [3], "momentum": 0.99, "epsilon": 0.001, "center": true, "scale": false, "beta_initializer": {"class_name": "Zeros", "config": {}}, "gamma_initializer": {"class_name": "Ones", "config": {}}, "moving_mean_initializer": {"class_name": "Zeros", "config": {}}, "moving_variance_initializer": {"class_name": "Ones", "config": {}}, "beta_regularizer": null, "gamma_regularizer": null, "beta_constraint": null, "gamma_constraint": null}, "name": "batch_normalization_273", "inbound_nodes": [[["conv2d_273", 0, 0, {}]]]}, {"class_name": "Activation", "config": {"name": "activation_270", "trainable": false, "dtype": "float32", "activation": "relu"}, "name": "activation_270", "inbound_nodes": [[["batch_normalization_270", 0, 0, {}]]]}, {"class_name": "Activation", "config": {"name": "activation_273", "trainable": false, "dtype": "float32", "activation": "relu"}, "name": "activation_273", "inbound_nodes": [[["batch_normalization_273", 0, 0, {}]]]}, {"class_name": "Conv2D", "config": {"name": "conv2d_269", "trainable": false, "dtype": "float32", "filters": 32, "kernel_size": [1, 1], "strides": [1, 1], "padding": "same", "data_format": "channels_last", "dilation_rate": [1, 1], "groups": 1, "activation": "linear", "use_bias": false, "kernel_initializer": {"class_name": "GlorotUniform", "config": {"seed": null}}, "bias_initializer": {"class_name": "Zeros", "config": {}}, "kernel_regularizer": null, "bias_regularizer": null, "activity_regularizer": null, "kernel_constraint": null, "bias_constraint": null}, "name": "conv2d_269", "inbound_nodes": [[["block35_9_ac", 0, 0, {}]]]}, {"class_name": "Conv2D", "config": {"name": "conv2d_271", "trainable": false, "dtype": "float32", "filters": 32, "kernel_size": [3, 3], "strides": [1, 1], "padding": "same", "data_format": "channels_last", "dilation_rate": [1, 1], "groups": 1, "activation": "linear", "use_bias": false, "kernel_initializer": {"class_name": "GlorotUniform", "config": {"seed": null}}, "bias_initializer": {"class_name": "Zeros", "config": {}}, "kernel_regularizer": null, "bias_regularizer": null, "activity_regularizer": null, "kernel_constraint": null, "bias_constraint": null}, "name": "conv2d_271", "inbound_nodes": [[["activation_270", 0, 0, {}]]]}, {"class_name": "Conv2D", "config": {"name": "conv2d_274", "trainable": false, "dtype": "float32", "filters": 64, "kernel_size": [3, 3], "strides": [1, 1], "padding": "same", "data_format": "channels_last", "dilation_rate": [1, 1], "groups": 1, "activation": "linear", "use_bias": false, "kernel_initializer": {"class_name": "GlorotUniform", "config": {"seed": null}}, "bias_initializer": {"class_name": "Zeros", "config": {}}, "kernel_regularizer": null, "bias_regularizer": null, "activity_regularizer": null, "kernel_constraint": null, "bias_constraint": null}, "name": "conv2d_274", "inbound_nodes": [[["activation_273", 0, 0, {}]]]}, {"class_name": "BatchNormalization", "config": {"name": "batch_normalization_269", "trainable": false, "dtype": "float32", "axis": [3], "momentum": 0.99, "epsilon": 0.001, "center": true, "scale": false, "beta_initializer": {"class_name": "Zeros", "config": {}}, "gamma_initializer": {"class_name": "Ones", "config": {}}, "moving_mean_initializer": {"class_name": "Zeros", "config": {}}, "moving_variance_initializer": {"class_name": "Ones", "config": {}}, "beta_regularizer": null, "gamma_regularizer": null, "beta_constraint": null, "gamma_constraint": null}, "name": "batch_normalization_269", "inbound_nodes": [[["conv2d_269", 0, 0, {}]]]}, {"class_name": "BatchNormalization", "config": {"name": "batch_normalization_271", "trainable": false, "dtype": "float32", "axis": [3], "momentum": 0.99, "epsilon": 0.001, "center": true, "scale": false, "beta_initializer": {"class_name": "Zeros", "config": {}}, "gamma_initializer": {"class_name": "Ones", "config": {}}, "moving_mean_initializer": {"class_name": "Zeros", "config": {}}, "moving_variance_initializer": {"class_name": "Ones", "config": {}}, "beta_regularizer": null, "gamma_regularizer": null, "beta_constraint": null, "gamma_constraint": null}, "name": "batch_normalization_271", "inbound_nodes": [[["conv2d_271", 0, 0, {}]]]}, {"class_name": "BatchNormalization", "config": {"name": "batch_normalization_274", "trainable": false, "dtype": "float32", "axis": [3], "momentum": 0.99, "epsilon": 0.001, "center": true, "scale": false, "beta_initializer": {"class_name": "Zeros", "config": {}}, "gamma_initializer": {"class_name": "Ones", "config": {}}, "moving_mean_initializer": {"class_name": "Zeros", "config": {}}, "moving_variance_initializer": {"class_name": "Ones", "config": {}}, "beta_regularizer": null, "gamma_regularizer": null, "beta_constraint": null, "gamma_constraint": null}, "name": "batch_normalization_274", "inbound_nodes": [[["conv2d_274", 0, 0, {}]]]}, {"class_name": "Activation", "config": {"name": "activation_269", "trainable": false, "dtype": "float32", "activation": "relu"}, "name": "activation_269", "inbound_nodes": [[["batch_normalization_269", 0, 0, {}]]]}, {"class_name": "Activation", "config": {"name": "activation_271", "trainable": false, "dtype": "float32", "activation": "relu"}, "name": "activation_271", "inbound_nodes": [[["batch_normalization_271", 0, 0, {}]]]}, {"class_name": "Activation", "config": {"name": "activation_274", "trainable": false, "dtype": "float32", "activation": "relu"}, "name": "activation_274", "inbound_nodes": [[["batch_normalization_274", 0, 0, {}]]]}, {"class_name": "Concatenate", "config": {"name": "block35_10_mixed", "trainable": false, "dtype": "float32", "axis": 3}, "name": "block35_10_mixed", "inbound_nodes": [[["activation_269", 0, 0, {}], ["activation_271", 0, 0, {}], ["activation_274", 0, 0, {}]]]}, {"class_name": "Conv2D", "config": {"name": "block35_10_conv", "trainable": false, "dtype": "float32", "filters": 320, "kernel_size": [1, 1], "strides": [1, 1], "padding": "same", "data_format": "channels_last", "dilation_rate": [1, 1], "groups": 1, "activation": "linear", "use_bias": true, "kernel_initializer": {"class_name": "GlorotUniform", "config": {"seed": null}}, "bias_initializer": {"class_name": "Zeros", "config": {}}, "kernel_regularizer": null, "bias_regularizer": null, "activity_regularizer": null, "kernel_constraint": null, "bias_constraint": null}, "name": "block35_10_conv", "inbound_nodes": [[["block35_10_mixed", 0, 0, {}]]]}, {"class_name": "Lambda", "config": {"name": "block35_10", "trainable": false, "dtype": "float32", "function": ["4wIAAAAAAAAAAAAAAAIAAAADAAAAUwAAAHMUAAAAfABkARkAfABkAhkAfAEUABcAUwApA07pAAAA\nAOkBAAAAqQApAtoGaW5wdXRz2gVzY2FsZXIDAAAAcgMAAAD6ckM6L1VzZXJzL0luZHJhL2FuYWNv\nbmRhMy9lbnZzL3RmLWdwdS9saWIvc2l0ZS1wYWNrYWdlcy90ZW5zb3JmbG93L3B5dGhvbi9rZXJh\ncy9hcHBsaWNhdGlvbnMvaW5jZXB0aW9uX3Jlc25ldF92Mi5wedoIPGxhbWJkYT5xAQAA8wAAAAA=\n", null, null], "function_type": "lambda", "module": "tensorflow.python.keras.applications.inception_resnet_v2", "output_shape": [29, 29, 320], "output_shape_type": "raw", "output_shape_module": null, "arguments": {"scale": 0.17}}, "name": "block35_10", "inbound_nodes": [[["block35_9_ac", 0, 0, {}], ["block35_10_conv", 0, 0, {}]]]}, {"class_name": "Activation", "config": {"name": "block35_10_ac", "trainable": false, "dtype": "float32", "activation": "relu"}, "name": "block35_10_ac", "inbound_nodes": [[["block35_10", 0, 0, {}]]]}, {"class_name": "Conv2D", "config": {"name": "conv2d_276", "trainable": false, "dtype": "float32", "filters": 256, "kernel_size": [1, 1], "strides": [1, 1], "padding": "same", "data_format": "channels_last", "dilation_rate": [1, 1], "groups": 1, "activation": "linear", "use_bias": false, "kernel_initializer": {"class_name": "GlorotUniform", "config": {"seed": null}}, "bias_initializer": {"class_name": "Zeros", "config": {}}, "kernel_regularizer": null, "bias_regularizer": null, "activity_regularizer": null, "kernel_constraint": null, "bias_constraint": null}, "name": "conv2d_276", "inbound_nodes": [[["block35_10_ac", 0, 0, {}]]]}, {"class_name": "BatchNormalization", "config": {"name": "batch_normalization_276", "trainable": false, "dtype": "float32", "axis": [3], "momentum": 0.99, "epsilon": 0.001, "center": true, "scale": false, "beta_initializer": {"class_name": "Zeros", "config": {}}, "gamma_initializer": {"class_name": "Ones", "config": {}}, "moving_mean_initializer": {"class_name": "Zeros", "config": {}}, "moving_variance_initializer": {"class_name": "Ones", "config": {}}, "beta_regularizer": null, "gamma_regularizer": null, "beta_constraint": null, "gamma_constraint": null}, "name": "batch_normalization_276", "inbound_nodes": [[["conv2d_276", 0, 0, {}]]]}, {"class_name": "Activation", "config": {"name": "activation_276", "trainable": false, "dtype": "float32", "activation": "relu"}, "name": "activation_276", "inbound_nodes": [[["batch_normalization_276", 0, 0, {}]]]}, {"class_name": "Conv2D", "config": {"name": "conv2d_277", "trainable": false, "dtype": "float32", "filters": 256, "kernel_size": [3, 3], "strides": [1, 1], "padding": "same", "data_format": "channels_last", "dilation_rate": [1, 1], "groups": 1, "activation": "linear", "use_bias": false, "kernel_initializer": {"class_name": "GlorotUniform", "config": {"seed": null}}, "bias_initializer": {"class_name": "Zeros", "config": {}}, "kernel_regularizer": null, "bias_regularizer": null, "activity_regularizer": null, "kernel_constraint": null, "bias_constraint": null}, "name": "conv2d_277", "inbound_nodes": [[["activation_276", 0, 0, {}]]]}, {"class_name": "BatchNormalization", "config": {"name": "batch_normalization_277", "trainable": false, "dtype": "float32", "axis": [3], "momentum": 0.99, "epsilon": 0.001, "center": true, "scale": false, "beta_initializer": {"class_name": "Zeros", "config": {}}, "gamma_initializer": {"class_name": "Ones", "config": {}}, "moving_mean_initializer": {"class_name": "Zeros", "config": {}}, "moving_variance_initializer": {"class_name": "Ones", "config": {}}, "beta_regularizer": null, "gamma_regularizer": null, "beta_constraint": null, "gamma_constraint": null}, "name": "batch_normalization_277", "inbound_nodes": [[["conv2d_277", 0, 0, {}]]]}, {"class_name": "Activation", "config": {"name": "activation_277", "trainable": false, "dtype": "float32", "activation": "relu"}, "name": "activation_277", "inbound_nodes": [[["batch_normalization_277", 0, 0, {}]]]}, {"class_name": "Conv2D", "config": {"name": "conv2d_275", "trainable": false, "dtype": "float32", "filters": 384, "kernel_size": [3, 3], "strides": [2, 2], "padding": "valid", "data_format": "channels_last", "dilation_rate": [1, 1], "groups": 1, "activation": "linear", "use_bias": false, "kernel_initializer": {"class_name": "GlorotUniform", "config": {"seed": null}}, "bias_initializer": {"class_name": "Zeros", "config": {}}, "kernel_regularizer": null, "bias_regularizer": null, "activity_regularizer": null, "kernel_constraint": null, "bias_constraint": null}, "name": "conv2d_275", "inbound_nodes": [[["block35_10_ac", 0, 0, {}]]]}, {"class_name": "Conv2D", "config": {"name": "conv2d_278", "trainable": false, "dtype": "float32", "filters": 384, "kernel_size": [3, 3], "strides": [2, 2], "padding": "valid", "data_format": "channels_last", "dilation_rate": [1, 1], "groups": 1, "activation": "linear", "use_bias": false, "kernel_initializer": {"class_name": "GlorotUniform", "config": {"seed": null}}, "bias_initializer": {"class_name": "Zeros", "config": {}}, "kernel_regularizer": null, "bias_regularizer": null, "activity_regularizer": null, "kernel_constraint": null, "bias_constraint": null}, "name": "conv2d_278", "inbound_nodes": [[["activation_277", 0, 0, {}]]]}, {"class_name": "BatchNormalization", "config": {"name": "batch_normalization_275", "trainable": false, "dtype": "float32", "axis": [3], "momentum": 0.99, "epsilon": 0.001, "center": true, "scale": false, "beta_initializer": {"class_name": "Zeros", "config": {}}, "gamma_initializer": {"class_name": "Ones", "config": {}}, "moving_mean_initializer": {"class_name": "Zeros", "config": {}}, "moving_variance_initializer": {"class_name": "Ones", "config": {}}, "beta_regularizer": null, "gamma_regularizer": null, "beta_constraint": null, "gamma_constraint": null}, "name": "batch_normalization_275", "inbound_nodes": [[["conv2d_275", 0, 0, {}]]]}, {"class_name": "BatchNormalization", "config": {"name": "batch_normalization_278", "trainable": false, "dtype": "float32", "axis": [3], "momentum": 0.99, "epsilon": 0.001, "center": true, "scale": false, "beta_initializer": {"class_name": "Zeros", "config": {}}, "gamma_initializer": {"class_name": "Ones", "config": {}}, "moving_mean_initializer": {"class_name": "Zeros", "config": {}}, "moving_variance_initializer": {"class_name": "Ones", "config": {}}, "beta_regularizer": null, "gamma_regularizer": null, "beta_constraint": null, "gamma_constraint": null}, "name": "batch_normalization_278", "inbound_nodes": [[["conv2d_278", 0, 0, {}]]]}, {"class_name": "Activation", "config": {"name": "activation_275", "trainable": false, "dtype": "float32", "activation": "relu"}, "name": "activation_275", "inbound_nodes": [[["batch_normalization_275", 0, 0, {}]]]}, {"class_name": "Activation", "config": {"name": "activation_278", "trainable": false, "dtype": "float32", "activation": "relu"}, "name": "activation_278", "inbound_nodes": [[["batch_normalization_278", 0, 0, {}]]]}, {"class_name": "MaxPooling2D", "config": {"name": "max_pooling2d_6", "trainable": false, "dtype": "float32", "pool_size": [3, 3], "padding": "valid", "strides": [2, 2], "data_format": "channels_last"}, "name": "max_pooling2d_6", "inbound_nodes": [[["block35_10_ac", 0, 0, {}]]]}, {"class_name": "Concatenate", "config": {"name": "mixed_6a", "trainable": false, "dtype": "float32", "axis": 3}, "name": "mixed_6a", "inbound_nodes": [[["activation_275", 0, 0, {}], ["activation_278", 0, 0, {}], ["max_pooling2d_6", 0, 0, {}]]]}, {"class_name": "Conv2D", "config": {"name": "conv2d_280", "trainable": false, "dtype": "float32", "filters": 128, "kernel_size": [1, 1], "strides": [1, 1], "padding": "same", "data_format": "channels_last", "dilation_rate": [1, 1], "groups": 1, "activation": "linear", "use_bias": false, "kernel_initializer": {"class_name": "GlorotUniform", "config": {"seed": null}}, "bias_initializer": {"class_name": "Zeros", "config": {}}, "kernel_regularizer": null, "bias_regularizer": null, "activity_regularizer": null, "kernel_constraint": null, "bias_constraint": null}, "name": "conv2d_280", "inbound_nodes": [[["mixed_6a", 0, 0, {}]]]}, {"class_name": "BatchNormalization", "config": {"name": "batch_normalization_280", "trainable": false, "dtype": "float32", "axis": [3], "momentum": 0.99, "epsilon": 0.001, "center": true, "scale": false, "beta_initializer": {"class_name": "Zeros", "config": {}}, "gamma_initializer": {"class_name": "Ones", "config": {}}, "moving_mean_initializer": {"class_name": "Zeros", "config": {}}, "moving_variance_initializer": {"class_name": "Ones", "config": {}}, "beta_regularizer": null, "gamma_regularizer": null, "beta_constraint": null, "gamma_constraint": null}, "name": "batch_normalization_280", "inbound_nodes": [[["conv2d_280", 0, 0, {}]]]}, {"class_name": "Activation", "config": {"name": "activation_280", "trainable": false, "dtype": "float32", "activation": "relu"}, "name": "activation_280", "inbound_nodes": [[["batch_normalization_280", 0, 0, {}]]]}, {"class_name": "Conv2D", "config": {"name": "conv2d_281", "trainable": false, "dtype": "float32", "filters": 160, "kernel_size": [1, 7], "strides": [1, 1], "padding": "same", "data_format": "channels_last", "dilation_rate": [1, 1], "groups": 1, "activation": "linear", "use_bias": false, "kernel_initializer": {"class_name": "GlorotUniform", "config": {"seed": null}}, "bias_initializer": {"class_name": "Zeros", "config": {}}, "kernel_regularizer": null, "bias_regularizer": null, "activity_regularizer": null, "kernel_constraint": null, "bias_constraint": null}, "name": "conv2d_281", "inbound_nodes": [[["activation_280", 0, 0, {}]]]}, {"class_name": "BatchNormalization", "config": {"name": "batch_normalization_281", "trainable": false, "dtype": "float32", "axis": [3], "momentum": 0.99, "epsilon": 0.001, "center": true, "scale": false, "beta_initializer": {"class_name": "Zeros", "config": {}}, "gamma_initializer": {"class_name": "Ones", "config": {}}, "moving_mean_initializer": {"class_name": "Zeros", "config": {}}, "moving_variance_initializer": {"class_name": "Ones", "config": {}}, "beta_regularizer": null, "gamma_regularizer": null, "beta_constraint": null, "gamma_constraint": null}, "name": "batch_normalization_281", "inbound_nodes": [[["conv2d_281", 0, 0, {}]]]}, {"class_name": "Activation", "config": {"name": "activation_281", "trainable": false, "dtype": "float32", "activation": "relu"}, "name": "activation_281", "inbound_nodes": [[["batch_normalization_281", 0, 0, {}]]]}, {"class_name": "Conv2D", "config": {"name": "conv2d_279", "trainable": false, "dtype": "float32", "filters": 192, "kernel_size": [1, 1], "strides": [1, 1], "padding": "same", "data_format": "channels_last", "dilation_rate": [1, 1], "groups": 1, "activation": "linear", "use_bias": false, "kernel_initializer": {"class_name": "GlorotUniform", "config": {"seed": null}}, "bias_initializer": {"class_name": "Zeros", "config": {}}, "kernel_regularizer": null, "bias_regularizer": null, "activity_regularizer": null, "kernel_constraint": null, "bias_constraint": null}, "name": "conv2d_279", "inbound_nodes": [[["mixed_6a", 0, 0, {}]]]}, {"class_name": "Conv2D", "config": {"name": "conv2d_282", "trainable": false, "dtype": "float32", "filters": 192, "kernel_size": [7, 1], "strides": [1, 1], "padding": "same", "data_format": "channels_last", "dilation_rate": [1, 1], "groups": 1, "activation": "linear", "use_bias": false, "kernel_initializer": {"class_name": "GlorotUniform", "config": {"seed": null}}, "bias_initializer": {"class_name": "Zeros", "config": {}}, "kernel_regularizer": null, "bias_regularizer": null, "activity_regularizer": null, "kernel_constraint": null, "bias_constraint": null}, "name": "conv2d_282", "inbound_nodes": [[["activation_281", 0, 0, {}]]]}, {"class_name": "BatchNormalization", "config": {"name": "batch_normalization_279", "trainable": false, "dtype": "float32", "axis": [3], "momentum": 0.99, "epsilon": 0.001, "center": true, "scale": false, "beta_initializer": {"class_name": "Zeros", "config": {}}, "gamma_initializer": {"class_name": "Ones", "config": {}}, "moving_mean_initializer": {"class_name": "Zeros", "config": {}}, "moving_variance_initializer": {"class_name": "Ones", "config": {}}, "beta_regularizer": null, "gamma_regularizer": null, "beta_constraint": null, "gamma_constraint": null}, "name": "batch_normalization_279", "inbound_nodes": [[["conv2d_279", 0, 0, {}]]]}, {"class_name": "BatchNormalization", "config": {"name": "batch_normalization_282", "trainable": false, "dtype": "float32", "axis": [3], "momentum": 0.99, "epsilon": 0.001, "center": true, "scale": false, "beta_initializer": {"class_name": "Zeros", "config": {}}, "gamma_initializer": {"class_name": "Ones", "config": {}}, "moving_mean_initializer": {"class_name": "Zeros", "config": {}}, "moving_variance_initializer": {"class_name": "Ones", "config": {}}, "beta_regularizer": null, "gamma_regularizer": null, "beta_constraint": null, "gamma_constraint": null}, "name": "batch_normalization_282", "inbound_nodes": [[["conv2d_282", 0, 0, {}]]]}, {"class_name": "Activation", "config": {"name": "activation_279", "trainable": false, "dtype": "float32", "activation": "relu"}, "name": "activation_279", "inbound_nodes": [[["batch_normalization_279", 0, 0, {}]]]}, {"class_name": "Activation", "config": {"name": "activation_282", "trainable": false, "dtype": "float32", "activation": "relu"}, "name": "activation_282", "inbound_nodes": [[["batch_normalization_282", 0, 0, {}]]]}, {"class_name": "Concatenate", "config": {"name": "block17_1_mixed", "trainable": false, "dtype": "float32", "axis": 3}, "name": "block17_1_mixed", "inbound_nodes": [[["activation_279", 0, 0, {}], ["activation_282", 0, 0, {}]]]}, {"class_name": "Conv2D", "config": {"name": "block17_1_conv", "trainable": false, "dtype": "float32", "filters": 1088, "kernel_size": [1, 1], "strides": [1, 1], "padding": "same", "data_format": "channels_last", "dilation_rate": [1, 1], "groups": 1, "activation": "linear", "use_bias": true, "kernel_initializer": {"class_name": "GlorotUniform", "config": {"seed": null}}, "bias_initializer": {"class_name": "Zeros", "config": {}}, "kernel_regularizer": null, "bias_regularizer": null, "activity_regularizer": null, "kernel_constraint": null, "bias_constraint": null}, "name": "block17_1_conv", "inbound_nodes": [[["block17_1_mixed", 0, 0, {}]]]}, {"class_name": "Lambda", "config": {"name": "block17_1", "trainable": false, "dtype": "float32", "function": ["4wIAAAAAAAAAAAAAAAIAAAADAAAAUwAAAHMUAAAAfABkARkAfABkAhkAfAEUABcAUwApA07pAAAA\nAOkBAAAAqQApAtoGaW5wdXRz2gVzY2FsZXIDAAAAcgMAAAD6ckM6L1VzZXJzL0luZHJhL2FuYWNv\nbmRhMy9lbnZzL3RmLWdwdS9saWIvc2l0ZS1wYWNrYWdlcy90ZW5zb3JmbG93L3B5dGhvbi9rZXJh\ncy9hcHBsaWNhdGlvbnMvaW5jZXB0aW9uX3Jlc25ldF92Mi5wedoIPGxhbWJkYT5xAQAA8wAAAAA=\n", null, null], "function_type": "lambda", "module": "tensorflow.python.keras.applications.inception_resnet_v2", "output_shape": [14, 14, 1088], "output_shape_type": "raw", "output_shape_module": null, "arguments": {"scale": 0.1}}, "name": "block17_1", "inbound_nodes": [[["mixed_6a", 0, 0, {}], ["block17_1_conv", 0, 0, {}]]]}, {"class_name": "Activation", "config": {"name": "block17_1_ac", "trainable": false, "dtype": "float32", "activation": "relu"}, "name": "block17_1_ac", "inbound_nodes": [[["block17_1", 0, 0, {}]]]}, {"class_name": "Conv2D", "config": {"name": "conv2d_284", "trainable": false, "dtype": "float32", "filters": 128, "kernel_size": [1, 1], "strides": [1, 1], "padding": "same", "data_format": "channels_last", "dilation_rate": [1, 1], "groups": 1, "activation": "linear", "use_bias": false, "kernel_initializer": {"class_name": "GlorotUniform", "config": {"seed": null}}, "bias_initializer": {"class_name": "Zeros", "config": {}}, "kernel_regularizer": null, "bias_regularizer": null, "activity_regularizer": null, "kernel_constraint": null, "bias_constraint": null}, "name": "conv2d_284", "inbound_nodes": [[["block17_1_ac", 0, 0, {}]]]}, {"class_name": "BatchNormalization", "config": {"name": "batch_normalization_284", "trainable": false, "dtype": "float32", "axis": [3], "momentum": 0.99, "epsilon": 0.001, "center": true, "scale": false, "beta_initializer": {"class_name": "Zeros", "config": {}}, "gamma_initializer": {"class_name": "Ones", "config": {}}, "moving_mean_initializer": {"class_name": "Zeros", "config": {}}, "moving_variance_initializer": {"class_name": "Ones", "config": {}}, "beta_regularizer": null, "gamma_regularizer": null, "beta_constraint": null, "gamma_constraint": null}, "name": "batch_normalization_284", "inbound_nodes": [[["conv2d_284", 0, 0, {}]]]}, {"class_name": "Activation", "config": {"name": "activation_284", "trainable": false, "dtype": "float32", "activation": "relu"}, "name": "activation_284", "inbound_nodes": [[["batch_normalization_284", 0, 0, {}]]]}, {"class_name": "Conv2D", "config": {"name": "conv2d_285", "trainable": false, "dtype": "float32", "filters": 160, "kernel_size": [1, 7], "strides": [1, 1], "padding": "same", "data_format": "channels_last", "dilation_rate": [1, 1], "groups": 1, "activation": "linear", "use_bias": false, "kernel_initializer": {"class_name": "GlorotUniform", "config": {"seed": null}}, "bias_initializer": {"class_name": "Zeros", "config": {}}, "kernel_regularizer": null, "bias_regularizer": null, "activity_regularizer": null, "kernel_constraint": null, "bias_constraint": null}, "name": "conv2d_285", "inbound_nodes": [[["activation_284", 0, 0, {}]]]}, {"class_name": "BatchNormalization", "config": {"name": "batch_normalization_285", "trainable": false, "dtype": "float32", "axis": [3], "momentum": 0.99, "epsilon": 0.001, "center": true, "scale": false, "beta_initializer": {"class_name": "Zeros", "config": {}}, "gamma_initializer": {"class_name": "Ones", "config": {}}, "moving_mean_initializer": {"class_name": "Zeros", "config": {}}, "moving_variance_initializer": {"class_name": "Ones", "config": {}}, "beta_regularizer": null, "gamma_regularizer": null, "beta_constraint": null, "gamma_constraint": null}, "name": "batch_normalization_285", "inbound_nodes": [[["conv2d_285", 0, 0, {}]]]}, {"class_name": "Activation", "config": {"name": "activation_285", "trainable": false, "dtype": "float32", "activation": "relu"}, "name": "activation_285", "inbound_nodes": [[["batch_normalization_285", 0, 0, {}]]]}, {"class_name": "Conv2D", "config": {"name": "conv2d_283", "trainable": false, "dtype": "float32", "filters": 192, "kernel_size": [1, 1], "strides": [1, 1], "padding": "same", "data_format": "channels_last", "dilation_rate": [1, 1], "groups": 1, "activation": "linear", "use_bias": false, "kernel_initializer": {"class_name": "GlorotUniform", "config": {"seed": null}}, "bias_initializer": {"class_name": "Zeros", "config": {}}, "kernel_regularizer": null, "bias_regularizer": null, "activity_regularizer": null, "kernel_constraint": null, "bias_constraint": null}, "name": "conv2d_283", "inbound_nodes": [[["block17_1_ac", 0, 0, {}]]]}, {"class_name": "Conv2D", "config": {"name": "conv2d_286", "trainable": false, "dtype": "float32", "filters": 192, "kernel_size": [7, 1], "strides": [1, 1], "padding": "same", "data_format": "channels_last", "dilation_rate": [1, 1], "groups": 1, "activation": "linear", "use_bias": false, "kernel_initializer": {"class_name": "GlorotUniform", "config": {"seed": null}}, "bias_initializer": {"class_name": "Zeros", "config": {}}, "kernel_regularizer": null, "bias_regularizer": null, "activity_regularizer": null, "kernel_constraint": null, "bias_constraint": null}, "name": "conv2d_286", "inbound_nodes": [[["activation_285", 0, 0, {}]]]}, {"class_name": "BatchNormalization", "config": {"name": "batch_normalization_283", "trainable": false, "dtype": "float32", "axis": [3], "momentum": 0.99, "epsilon": 0.001, "center": true, "scale": false, "beta_initializer": {"class_name": "Zeros", "config": {}}, "gamma_initializer": {"class_name": "Ones", "config": {}}, "moving_mean_initializer": {"class_name": "Zeros", "config": {}}, "moving_variance_initializer": {"class_name": "Ones", "config": {}}, "beta_regularizer": null, "gamma_regularizer": null, "beta_constraint": null, "gamma_constraint": null}, "name": "batch_normalization_283", "inbound_nodes": [[["conv2d_283", 0, 0, {}]]]}, {"class_name": "BatchNormalization", "config": {"name": "batch_normalization_286", "trainable": false, "dtype": "float32", "axis": [3], "momentum": 0.99, "epsilon": 0.001, "center": true, "scale": false, "beta_initializer": {"class_name": "Zeros", "config": {}}, "gamma_initializer": {"class_name": "Ones", "config": {}}, "moving_mean_initializer": {"class_name": "Zeros", "config": {}}, "moving_variance_initializer": {"class_name": "Ones", "config": {}}, "beta_regularizer": null, "gamma_regularizer": null, "beta_constraint": null, "gamma_constraint": null}, "name": "batch_normalization_286", "inbound_nodes": [[["conv2d_286", 0, 0, {}]]]}, {"class_name": "Activation", "config": {"name": "activation_283", "trainable": false, "dtype": "float32", "activation": "relu"}, "name": "activation_283", "inbound_nodes": [[["batch_normalization_283", 0, 0, {}]]]}, {"class_name": "Activation", "config": {"name": "activation_286", "trainable": false, "dtype": "float32", "activation": "relu"}, "name": "activation_286", "inbound_nodes": [[["batch_normalization_286", 0, 0, {}]]]}, {"class_name": "Concatenate", "config": {"name": "block17_2_mixed", "trainable": false, "dtype": "float32", "axis": 3}, "name": "block17_2_mixed", "inbound_nodes": [[["activation_283", 0, 0, {}], ["activation_286", 0, 0, {}]]]}, {"class_name": "Conv2D", "config": {"name": "block17_2_conv", "trainable": false, "dtype": "float32", "filters": 1088, "kernel_size": [1, 1], "strides": [1, 1], "padding": "same", "data_format": "channels_last", "dilation_rate": [1, 1], "groups": 1, "activation": "linear", "use_bias": true, "kernel_initializer": {"class_name": "GlorotUniform", "config": {"seed": null}}, "bias_initializer": {"class_name": "Zeros", "config": {}}, "kernel_regularizer": null, "bias_regularizer": null, "activity_regularizer": null, "kernel_constraint": null, "bias_constraint": null}, "name": "block17_2_conv", "inbound_nodes": [[["block17_2_mixed", 0, 0, {}]]]}, {"class_name": "Lambda", "config": {"name": "block17_2", "trainable": false, "dtype": "float32", "function": ["4wIAAAAAAAAAAAAAAAIAAAADAAAAUwAAAHMUAAAAfABkARkAfABkAhkAfAEUABcAUwApA07pAAAA\nAOkBAAAAqQApAtoGaW5wdXRz2gVzY2FsZXIDAAAAcgMAAAD6ckM6L1VzZXJzL0luZHJhL2FuYWNv\nbmRhMy9lbnZzL3RmLWdwdS9saWIvc2l0ZS1wYWNrYWdlcy90ZW5zb3JmbG93L3B5dGhvbi9rZXJh\ncy9hcHBsaWNhdGlvbnMvaW5jZXB0aW9uX3Jlc25ldF92Mi5wedoIPGxhbWJkYT5xAQAA8wAAAAA=\n", null, null], "function_type": "lambda", "module": "tensorflow.python.keras.applications.inception_resnet_v2", "output_shape": [14, 14, 1088], "output_shape_type": "raw", "output_shape_module": null, "arguments": {"scale": 0.1}}, "name": "block17_2", "inbound_nodes": [[["block17_1_ac", 0, 0, {}], ["block17_2_conv", 0, 0, {}]]]}, {"class_name": "Activation", "config": {"name": "block17_2_ac", "trainable": false, "dtype": "float32", "activation": "relu"}, "name": "block17_2_ac", "inbound_nod…
ock8_4", 0, 0, {}]]]}, {"class_name": "Conv2D", "config": {"name": "conv2d_383", "trainable": false, "dtype": "float32", "filters": 192, "kernel_size": [1, 1], "strides": [1, 1], "padding": "same", "data_format": "channels_last", "dilation_rate": [1, 1], "groups": 1, "activation": "linear", "use_bias": false, "kernel_initializer": {"class_name": "GlorotUniform", "config": {"seed": null}}, "bias_initializer": {"class_name": "Zeros", "config": {}}, "kernel_regularizer": null, "bias_regularizer": null, "activity_regularizer": null, "kernel_constraint": null, "bias_constraint": null}, "name": "conv2d_383", "inbound_nodes": [[["block8_4_ac", 0, 0, {}]]]}, {"class_name": "BatchNormalization", "config": {"name": "batch_normalization_383", "trainable": false, "dtype": "float32", "axis": [3], "momentum": 0.99, "epsilon": 0.001, "center": true, "scale": false, "beta_initializer": {"class_name": "Zeros", "config": {}}, "gamma_initializer": {"class_name": "Ones", "config": {}}, "moving_mean_initializer": {"class_name": "Zeros", "config": {}}, "moving_variance_initializer": {"class_name": "Ones", "config": {}}, "beta_regularizer": null, "gamma_regularizer": null, "beta_constraint": null, "gamma_constraint": null}, "name": "batch_normalization_383", "inbound_nodes": [[["conv2d_383", 0, 0, {}]]]}, {"class_name": "Activation", "config": {"name": "activation_383", "trainable": false, "dtype": "float32", "activation": "relu"}, "name": "activation_383", "inbound_nodes": [[["batch_normalization_383", 0, 0, {}]]]}, {"class_name": "Conv2D", "config": {"name": "conv2d_384", "trainable": false, "dtype": "float32", "filters": 224, "kernel_size": [1, 3], "strides": [1, 1], "padding": "same", "data_format": "channels_last", "dilation_rate": [1, 1], "groups": 1, "activation": "linear", "use_bias": false, "kernel_initializer": {"class_name": "GlorotUniform", "config": {"seed": null}}, "bias_initializer": {"class_name": "Zeros", "config": {}}, "kernel_regularizer": null, "bias_regularizer": null, "activity_regularizer": null, "kernel_constraint": null, "bias_constraint": null}, "name": "conv2d_384", "inbound_nodes": [[["activation_383", 0, 0, {}]]]}, {"class_name": "BatchNormalization", "config": {"name": "batch_normalization_384", "trainable": false, "dtype": "float32", "axis": [3], "momentum": 0.99, "epsilon": 0.001, "center": true, "scale": false, "beta_initializer": {"class_name": "Zeros", "config": {}}, "gamma_initializer": {"class_name": "Ones", "config": {}}, "moving_mean_initializer": {"class_name": "Zeros", "config": {}}, "moving_variance_initializer": {"class_name": "Ones", "config": {}}, "beta_regularizer": null, "gamma_regularizer": null, "beta_constraint": null, "gamma_constraint": null}, "name": "batch_normalization_384", "inbound_nodes": [[["conv2d_384", 0, 0, {}]]]}, {"class_name": "Activation", "config": {"name": "activation_384", "trainable": false, "dtype": "float32", "activation": "relu"}, "name": "activation_384", "inbound_nodes": [[["batch_normalization_384", 0, 0, {}]]]}, {"class_name": "Conv2D", "config": {"name": "conv2d_382", "trainable": false, "dtype": "float32", "filters": 192, "kernel_size": [1, 1], "strides": [1, 1], "padding": "same", "data_format": "channels_last", "dilation_rate": [1, 1], "groups": 1, "activation": "linear", "use_bias": false, "kernel_initializer": {"class_name": "GlorotUniform", "config": {"seed": null}}, "bias_initializer": {"class_name": "Zeros", "config": {}}, "kernel_regularizer": null, "bias_regularizer": null, "activity_regularizer": null, "kernel_constraint": null, "bias_constraint": null}, "name": "conv2d_382", "inbound_nodes": [[["block8_4_ac", 0, 0, {}]]]}, {"class_name": "Conv2D", "config": {"name": "conv2d_385", "trainable": false, "dtype": "float32", "filters": 256, "kernel_size": [3, 1], "strides": [1, 1], "padding": "same", "data_format": "channels_last", "dilation_rate": [1, 1], "groups": 1, "activation": "linear", "use_bias": false, "kernel_initializer": {"class_name": "GlorotUniform", "config": {"seed": null}}, "bias_initializer": {"class_name": "Zeros", "config": {}}, "kernel_regularizer": null, "bias_regularizer": null, "activity_regularizer": null, "kernel_constraint": null, "bias_constraint": null}, "name": "conv2d_385", "inbound_nodes": [[["activation_384", 0, 0, {}]]]}, {"class_name": "BatchNormalization", "config": {"name": "batch_normalization_382", "trainable": false, "dtype": "float32", "axis": [3], "momentum": 0.99, "epsilon": 0.001, "center": true, "scale": false, "beta_initializer": {"class_name": "Zeros", "config": {}}, "gamma_initializer": {"class_name": "Ones", "config": {}}, "moving_mean_initializer": {"class_name": "Zeros", "config": {}}, "moving_variance_initializer": {"class_name": "Ones", "config": {}}, "beta_regularizer": null, "gamma_regularizer": null, "beta_constraint": null, "gamma_constraint": null}, "name": "batch_normalization_382", "inbound_nodes": [[["conv2d_382", 0, 0, {}]]]}, {"class_name": "BatchNormalization", "config": {"name": "batch_normalization_385", "trainable": false, "dtype": "float32", "axis": [3], "momentum": 0.99, "epsilon": 0.001, "center": true, "scale": false, "beta_initializer": {"class_name": "Zeros", "config": {}}, "gamma_initializer": {"class_name": "Ones", "config": {}}, "moving_mean_initializer": {"class_name": "Zeros", "config": {}}, "moving_variance_initializer": {"class_name": "Ones", "config": {}}, "beta_regularizer": null, "gamma_regularizer": null, "beta_constraint": null, "gamma_constraint": null}, "name": "batch_normalization_385", "inbound_nodes": [[["conv2d_385", 0, 0, {}]]]}, {"class_name": "Activation", "config": {"name": "activation_382", "trainable": false, "dtype": "float32", "activation": "relu"}, "name": "activation_382", "inbound_nodes": [[["batch_normalization_382", 0, 0, {}]]]}, {"class_name": "Activation", "config": {"name": "activation_385", "trainable": false, "dtype": "float32", "activation": "relu"}, "name": "activation_385", "inbound_nodes": [[["batch_normalization_385", 0, 0, {}]]]}, {"class_name": "Concatenate", "config": {"name": "block8_5_mixed", "trainable": false, "dtype": "float32", "axis": 3}, "name": "block8_5_mixed", "inbound_nodes": [[["activation_382", 0, 0, {}], ["activation_385", 0, 0, {}]]]}, {"class_name": "Conv2D", "config": {"name": "block8_5_conv", "trainable": false, "dtype": "float32", "filters": 2080, "kernel_size": [1, 1], "strides": [1, 1], "padding": "same", "data_format": "channels_last", "dilation_rate": [1, 1], "groups": 1, "activation": "linear", "use_bias": true, "kernel_initializer": {"class_name": "GlorotUniform", "config": {"seed": null}}, "bias_initializer": {"class_name": "Zeros", "config": {}}, "kernel_regularizer": null, "bias_regularizer": null, "activity_regularizer": null, "kernel_constraint": null, "bias_constraint": null}, "name": "block8_5_conv", "inbound_nodes": [[["block8_5_mixed", 0, 0, {}]]]}, {"class_name": "Lambda", "config": {"name": "block8_5", "trainable": false, "dtype": "float32", "function": ["4wIAAAAAAAAAAAAAAAIAAAADAAAAUwAAAHMUAAAAfABkARkAfABkAhkAfAEUABcAUwApA07pAAAA\nAOkBAAAAqQApAtoGaW5wdXRz2gVzY2FsZXIDAAAAcgMAAAD6ckM6L1VzZXJzL0luZHJhL2FuYWNv\nbmRhMy9lbnZzL3RmLWdwdS9saWIvc2l0ZS1wYWNrYWdlcy90ZW5zb3JmbG93L3B5dGhvbi9rZXJh\ncy9hcHBsaWNhdGlvbnMvaW5jZXB0aW9uX3Jlc25ldF92Mi5wedoIPGxhbWJkYT5xAQAA8wAAAAA=\n", null, null], "function_type": "lambda", "module": "tensorflow.python.keras.applications.inception_resnet_v2", "output_shape": [6, 6, 2080], "output_shape_type": "raw", "output_shape_module": null, "arguments": {"scale": 0.2}}, "name": "block8_5", "inbound_nodes": [[["block8_4_ac", 0, 0, {}], ["block8_5_conv", 0, 0, {}]]]}, {"class_name": "Activation", "config": {"name": "block8_5_ac", "trainable": false, "dtype": "float32", "activation": "relu"}, "name": "block8_5_ac", "inbound_nodes": [[["block8_5", 0, 0, {}]]]}, {"class_name": "Conv2D", "config": {"name": "conv2d_387", "trainable": false, "dtype": "float32", "filters": 192, "kernel_size": [1, 1], "strides": [1, 1], "padding": "same", "data_format": "channels_last", "dilation_rate": [1, 1], "groups": 1, "activation": "linear", "use_bias": false, "kernel_initializer": {"class_name": "GlorotUniform", "config": {"seed": null}}, "bias_initializer": {"class_name": "Zeros", "config": {}}, "kernel_regularizer": null, "bias_regularizer": null, "activity_regularizer": null, "kernel_constraint": null, "bias_constraint": null}, "name": "conv2d_387", "inbound_nodes": [[["block8_5_ac", 0, 0, {}]]]}, {"class_name": "BatchNormalization", "config": {"name": "batch_normalization_387", "trainable": false, "dtype": "float32", "axis": [3], "momentum": 0.99, "epsilon": 0.001, "center": true, "scale": false, "beta_initializer": {"class_name": "Zeros", "config": {}}, "gamma_initializer": {"class_name": "Ones", "config": {}}, "moving_mean_initializer": {"class_name": "Zeros", "config": {}}, "moving_variance_initializer": {"class_name": "Ones", "config": {}}, "beta_regularizer": null, "gamma_regularizer": null, "beta_constraint": null, "gamma_constraint": null}, "name": "batch_normalization_387", "inbound_nodes": [[["conv2d_387", 0, 0, {}]]]}, {"class_name": "Activation", "config": {"name": "activation_387", "trainable": false, "dtype": "float32", "activation": "relu"}, "name": "activation_387", "inbound_nodes": [[["batch_normalization_387", 0, 0, {}]]]}, {"class_name": "Conv2D", "config": {"name": "conv2d_388", "trainable": false, "dtype": "float32", "filters": 224, "kernel_size": [1, 3], "strides": [1, 1], "padding": "same", "data_format": "channels_last", "dilation_rate": [1, 1], "groups": 1, "activation": "linear", "use_bias": false, "kernel_initializer": {"class_name": "GlorotUniform", "config": {"seed": null}}, "bias_initializer": {"class_name": "Zeros", "config": {}}, "kernel_regularizer": null, "bias_regularizer": null, "activity_regularizer": null, "kernel_constraint": null, "bias_constraint": null}, "name": "conv2d_388", "inbound_nodes": [[["activation_387", 0, 0, {}]]]}, {"class_name": "BatchNormalization", "config": {"name": "batch_normalization_388", "trainable": false, "dtype": "float32", "axis": [3], "momentum": 0.99, "epsilon": 0.001, "center": true, "scale": false, "beta_initializer": {"class_name": "Zeros", "config": {}}, "gamma_initializer": {"class_name": "Ones", "config": {}}, "moving_mean_initializer": {"class_name": "Zeros", "config": {}}, "moving_variance_initializer": {"class_name": "Ones", "config": {}}, "beta_regularizer": null, "gamma_regularizer": null, "beta_constraint": null, "gamma_constraint": null}, "name": "batch_normalization_388", "inbound_nodes": [[["conv2d_388", 0, 0, {}]]]}, {"class_name": "Activation", "config": {"name": "activation_388", "trainable": false, "dtype": "float32", "activation": "relu"}, "name": "activation_388", "inbound_nodes": [[["batch_normalization_388", 0, 0, {}]]]}, {"class_name": "Conv2D", "config": {"name": "conv2d_386", "trainable": false, "dtype": "float32", "filters": 192, "kernel_size": [1, 1], "strides": [1, 1], "padding": "same", "data_format": "channels_last", "dilation_rate": [1, 1], "groups": 1, "activation": "linear", "use_bias": false, "kernel_initializer": {"class_name": "GlorotUniform", "config": {"seed": null}}, "bias_initializer": {"class_name": "Zeros", "config": {}}, "kernel_regularizer": null, "bias_regularizer": null, "activity_regularizer": null, "kernel_constraint": null, "bias_constraint": null}, "name": "conv2d_386", "inbound_nodes": [[["block8_5_ac", 0, 0, {}]]]}, {"class_name": "Conv2D", "config": {"name": "conv2d_389", "trainable": false, "dtype": "float32", "filters": 256, "kernel_size": [3, 1], "strides": [1, 1], "padding": "same", "data_format": "channels_last", "dilation_rate": [1, 1], "groups": 1, "activation": "linear", "use_bias": false, "kernel_initializer": {"class_name": "GlorotUniform", "config": {"seed": null}}, "bias_initializer": {"class_name": "Zeros", "config": {}}, "kernel_regularizer": null, "bias_regularizer": null, "activity_regularizer": null, "kernel_constraint": null, "bias_constraint": null}, "name": "conv2d_389", "inbound_nodes": [[["activation_388", 0, 0, {}]]]}, {"class_name": "BatchNormalization", "config": {"name": "batch_normalization_386", "trainable": false, "dtype": "float32", "axis": [3], "momentum": 0.99, "epsilon": 0.001, "center": true, "scale": false, "beta_initializer": {"class_name": "Zeros", "config": {}}, "gamma_initializer": {"class_name": "Ones", "config": {}}, "moving_mean_initializer": {"class_name": "Zeros", "config": {}}, "moving_variance_initializer": {"class_name": "Ones", "config": {}}, "beta_regularizer": null, "gamma_regularizer": null, "beta_constraint": null, "gamma_constraint": null}, "name": "batch_normalization_386", "inbound_nodes": [[["conv2d_386", 0, 0, {}]]]}, {"class_name": "BatchNormalization", "config": {"name": "batch_normalization_389", "trainable": false, "dtype": "float32", "axis": [3], "momentum": 0.99, "epsilon": 0.001, "center": true, "scale": false, "beta_initializer": {"class_name": "Zeros", "config": {}}, "gamma_initializer": {"class_name": "Ones", "config": {}}, "moving_mean_initializer": {"class_name": "Zeros", "config": {}}, "moving_variance_initializer": {"class_name": "Ones", "config": {}}, "beta_regularizer": null, "gamma_regularizer": null, "beta_constraint": null, "gamma_constraint": null}, "name": "batch_normalization_389", "inbound_nodes": [[["conv2d_389", 0, 0, {}]]]}, {"class_name": "Activation", "config": {"name": "activation_386", "trainable": false, "dtype": "float32", "activation": "relu"}, "name": "activation_386", "inbound_nodes": [[["batch_normalization_386", 0, 0, {}]]]}, {"class_name": "Activation", "config": {"name": "activation_389", "trainable": false, "dtype": "float32", "activation": "relu"}, "name": "activation_389", "inbound_nodes": [[["batch_normalization_389", 0, 0, {}]]]}, {"class_name": "Concatenate", "config": {"name": "block8_6_mixed", "trainable": false, "dtype": "float32", "axis": 3}, "name": "block8_6_mixed", "inbound_nodes": [[["activation_386", 0, 0, {}], ["activation_389", 0, 0, {}]]]}, {"class_name": "Conv2D", "config": {"name": "block8_6_conv", "trainable": false, "dtype": "float32", "filters": 2080, "kernel_size": [1, 1], "strides": [1, 1], "padding": "same", "data_format": "channels_last", "dilation_rate": [1, 1], "groups": 1, "activation": "linear", "use_bias": true, "kernel_initializer": {"class_name": "GlorotUniform", "config": {"seed": null}}, "bias_initializer": {"class_name": "Zeros", "config": {}}, "kernel_regularizer": null, "bias_regularizer": null, "activity_regularizer": null, "kernel_constraint": null, "bias_constraint": null}, "name": "block8_6_conv", "inbound_nodes": [[["block8_6_mixed", 0, 0, {}]]]}, {"class_name": "Lambda", "config": {"name": "block8_6", "trainable": false, "dtype": "float32", "function": ["4wIAAAAAAAAAAAAAAAIAAAADAAAAUwAAAHMUAAAAfABkARkAfABkAhkAfAEUABcAUwApA07pAAAA\nAOkBAAAAqQApAtoGaW5wdXRz2gVzY2FsZXIDAAAAcgMAAAD6ckM6L1VzZXJzL0luZHJhL2FuYWNv\nbmRhMy9lbnZzL3RmLWdwdS9saWIvc2l0ZS1wYWNrYWdlcy90ZW5zb3JmbG93L3B5dGhvbi9rZXJh\ncy9hcHBsaWNhdGlvbnMvaW5jZXB0aW9uX3Jlc25ldF92Mi5wedoIPGxhbWJkYT5xAQAA8wAAAAA=\n", null, null], "function_type": "lambda", "module": "tensorflow.python.keras.applications.inception_resnet_v2", "output_shape": [6, 6, 2080], "output_shape_type": "raw", "output_shape_module": null, "arguments": {"scale": 0.2}}, "name": "block8_6", "inbound_nodes": [[["block8_5_ac", 0, 0, {}], ["block8_6_conv", 0, 0, {}]]]}, {"class_name": "Activation", "config": {"name": "block8_6_ac", "trainable": false, "dtype": "float32", "activation": "relu"}, "name": "block8_6_ac", "inbound_nodes": [[["block8_6", 0, 0, {}]]]}, {"class_name": "Conv2D", "config": {"name": "conv2d_391", "trainable": false, "dtype": "float32", "filters": 192, "kernel_size": [1, 1], "strides": [1, 1], "padding": "same", "data_format": "channels_last", "dilation_rate": [1, 1], "groups": 1, "activation": "linear", "use_bias": false, "kernel_initializer": {"class_name": "GlorotUniform", "config": {"seed": null}}, "bias_initializer": {"class_name": "Zeros", "config": {}}, "kernel_regularizer": null, "bias_regularizer": null, "activity_regularizer": null, "kernel_constraint": null, "bias_constraint": null}, "name": "conv2d_391", "inbound_nodes": [[["block8_6_ac", 0, 0, {}]]]}, {"class_name": "BatchNormalization", "config": {"name": "batch_normalization_391", "trainable": false, "dtype": "float32", "axis": [3], "momentum": 0.99, "epsilon": 0.001, "center": true, "scale": false, "beta_initializer": {"class_name": "Zeros", "config": {}}, "gamma_initializer": {"class_name": "Ones", "config": {}}, "moving_mean_initializer": {"class_name": "Zeros", "config": {}}, "moving_variance_initializer": {"class_name": "Ones", "config": {}}, "beta_regularizer": null, "gamma_regularizer": null, "beta_constraint": null, "gamma_constraint": null}, "name": "batch_normalization_391", "inbound_nodes": [[["conv2d_391", 0, 0, {}]]]}, {"class_name": "Activation", "config": {"name": "activation_391", "trainable": false, "dtype": "float32", "activation": "relu"}, "name": "activation_391", "inbound_nodes": [[["batch_normalization_391", 0, 0, {}]]]}, {"class_name": "Conv2D", "config": {"name": "conv2d_392", "trainable": false, "dtype": "float32", "filters": 224, "kernel_size": [1, 3], "strides": [1, 1], "padding": "same", "data_format": "channels_last", "dilation_rate": [1, 1], "groups": 1, "activation": "linear", "use_bias": false, "kernel_initializer": {"class_name": "GlorotUniform", "config": {"seed": null}}, "bias_initializer": {"class_name": "Zeros", "config": {}}, "kernel_regularizer": null, "bias_regularizer": null, "activity_regularizer": null, "kernel_constraint": null, "bias_constraint": null}, "name": "conv2d_392", "inbound_nodes": [[["activation_391", 0, 0, {}]]]}, {"class_name": "BatchNormalization", "config": {"name": "batch_normalization_392", "trainable": false, "dtype": "float32", "axis": [3], "momentum": 0.99, "epsilon": 0.001, "center": true, "scale": false, "beta_initializer": {"class_name": "Zeros", "config": {}}, "gamma_initializer": {"class_name": "Ones", "config": {}}, "moving_mean_initializer": {"class_name": "Zeros", "config": {}}, "moving_variance_initializer": {"class_name": "Ones", "config": {}}, "beta_regularizer": null, "gamma_regularizer": null, "beta_constraint": null, "gamma_constraint": null}, "name": "batch_normalization_392", "inbound_nodes": [[["conv2d_392", 0, 0, {}]]]}, {"class_name": "Activation", "config": {"name": "activation_392", "trainable": false, "dtype": "float32", "activation": "relu"}, "name": "activation_392", "inbound_nodes": [[["batch_normalization_392", 0, 0, {}]]]}, {"class_name": "Conv2D", "config": {"name": "conv2d_390", "trainable": false, "dtype": "float32", "filters": 192, "kernel_size": [1, 1], "strides": [1, 1], "padding": "same", "data_format": "channels_last", "dilation_rate": [1, 1], "groups": 1, "activation": "linear", "use_bias": false, "kernel_initializer": {"class_name": "GlorotUniform", "config": {"seed": null}}, "bias_initializer": {"class_name": "Zeros", "config": {}}, "kernel_regularizer": null, "bias_regularizer": null, "activity_regularizer": null, "kernel_constraint": null, "bias_constraint": null}, "name": "conv2d_390", "inbound_nodes": [[["block8_6_ac", 0, 0, {}]]]}, {"class_name": "Conv2D", "config": {"name": "conv2d_393", "trainable": false, "dtype": "float32", "filters": 256, "kernel_size": [3, 1], "strides": [1, 1], "padding": "same", "data_format": "channels_last", "dilation_rate": [1, 1], "groups": 1, "activation": "linear", "use_bias": false, "kernel_initializer": {"class_name": "GlorotUniform", "config": {"seed": null}}, "bias_initializer": {"class_name": "Zeros", "config": {}}, "kernel_regularizer": null, "bias_regularizer": null, "activity_regularizer": null, "kernel_constraint": null, "bias_constraint": null}, "name": "conv2d_393", "inbound_nodes": [[["activation_392", 0, 0, {}]]]}, {"class_name": "BatchNormalization", "config": {"name": "batch_normalization_390", "trainable": false, "dtype": "float32", "axis": [3], "momentum": 0.99, "epsilon": 0.001, "center": true, "scale": false, "beta_initializer": {"class_name": "Zeros", "config": {}}, "gamma_initializer": {"class_name": "Ones", "config": {}}, "moving_mean_initializer": {"class_name": "Zeros", "config": {}}, "moving_variance_initializer": {"class_name": "Ones", "config": {}}, "beta_regularizer": null, "gamma_regularizer": null, "beta_constraint": null, "gamma_constraint": null}, "name": "batch_normalization_390", "inbound_nodes": [[["conv2d_390", 0, 0, {}]]]}, {"class_name": "BatchNormalization", "config": {"name": "batch_normalization_393", "trainable": false, "dtype": "float32", "axis": [3], "momentum": 0.99, "epsilon": 0.001, "center": true, "scale": false, "beta_initializer": {"class_name": "Zeros", "config": {}}, "gamma_initializer": {"class_name": "Ones", "config": {}}, "moving_mean_initializer": {"class_name": "Zeros", "config": {}}, "moving_variance_initializer": {"class_name": "Ones", "config": {}}, "beta_regularizer": null, "gamma_regularizer": null, "beta_constraint": null, "gamma_constraint": null}, "name": "batch_normalization_393", "inbound_nodes": [[["conv2d_393", 0, 0, {}]]]}, {"class_name": "Activation", "config": {"name": "activation_390", "trainable": false, "dtype": "float32", "activation": "relu"}, "name": "activation_390", "inbound_nodes": [[["batch_normalization_390", 0, 0, {}]]]}, {"class_name": "Activation", "config": {"name": "activation_393", "trainable": false, "dtype": "float32", "activation": "relu"}, "name": "activation_393", "inbound_nodes": [[["batch_normalization_393", 0, 0, {}]]]}, {"class_name": "Concatenate", "config": {"name": "block8_7_mixed", "trainable": false, "dtype": "float32", "axis": 3}, "name": "block8_7_mixed", "inbound_nodes": [[["activation_390", 0, 0, {}], ["activation_393", 0, 0, {}]]]}, {"class_name": "Conv2D", "config": {"name": "block8_7_conv", "trainable": false, "dtype": "float32", "filters": 2080, "kernel_size": [1, 1], "strides": [1, 1], "padding": "same", "data_format": "channels_last", "dilation_rate": [1, 1], "groups": 1, "activation": "linear", "use_bias": true, "kernel_initializer": {"class_name": "GlorotUniform", "config": {"seed": null}}, "bias_initializer": {"class_name": "Zeros", "config": {}}, "kernel_regularizer": null, "bias_regularizer": null, "activity_regularizer": null, "kernel_constraint": null, "bias_constraint": null}, "name": "block8_7_conv", "inbound_nodes": [[["block8_7_mixed", 0, 0, {}]]]}, {"class_name": "Lambda", "config": {"name": "block8_7", "trainable": false, "dtype": "float32", "function": ["4wIAAAAAAAAAAAAAAAIAAAADAAAAUwAAAHMUAAAAfABkARkAfABkAhkAfAEUABcAUwApA07pAAAA\nAOkBAAAAqQApAtoGaW5wdXRz2gVzY2FsZXIDAAAAcgMAAAD6ckM6L1VzZXJzL0luZHJhL2FuYWNv\nbmRhMy9lbnZzL3RmLWdwdS9saWIvc2l0ZS1wYWNrYWdlcy90ZW5zb3JmbG93L3B5dGhvbi9rZXJh\ncy9hcHBsaWNhdGlvbnMvaW5jZXB0aW9uX3Jlc25ldF92Mi5wedoIPGxhbWJkYT5xAQAA8wAAAAA=\n", null, null], "function_type": "lambda", "module": "tensorflow.python.keras.applications.inception_resnet_v2", "output_shape": [6, 6, 2080], "output_shape_type": "raw", "output_shape_module": null, "arguments": {"scale": 0.2}}, "name": "block8_7", "inbound_nodes": [[["block8_6_ac", 0, 0, {}], ["block8_7_conv", 0, 0, {}]]]}, {"class_name": "Activation", "config": {"name": "block8_7_ac", "trainable": false, "dtype": "float32", "activation": "relu"}, "name": "block8_7_ac", "inbound_nodes": [[["block8_7", 0, 0, {}]]]}, {"class_name": "Conv2D", "config": {"name": "conv2d_395", "trainable": false, "dtype": "float32", "filters": 192, "kernel_size": [1, 1], "strides": [1, 1], "padding": "same", "data_format": "channels_last", "dilation_rate": [1, 1], "groups": 1, "activation": "linear", "use_bias": false, "kernel_initializer": {"class_name": "GlorotUniform", "config": {"seed": null}}, "bias_initializer": {"class_name": "Zeros", "config": {}}, "kernel_regularizer": null, "bias_regularizer": null, "activity_regularizer": null, "kernel_constraint": null, "bias_constraint": null}, "name": "conv2d_395", "inbound_nodes": [[["block8_7_ac", 0, 0, {}]]]}, {"class_name": "BatchNormalization", "config": {"name": "batch_normalization_395", "trainable": false, "dtype": "float32", "axis": [3], "momentum": 0.99, "epsilon": 0.001, "center": true, "scale": false, "beta_initializer": {"class_name": "Zeros", "config": {}}, "gamma_initializer": {"class_name": "Ones", "config": {}}, "moving_mean_initializer": {"class_name": "Zeros", "config": {}}, "moving_variance_initializer": {"class_name": "Ones", "config": {}}, "beta_regularizer": null, "gamma_regularizer": null, "beta_constraint": null, "gamma_constraint": null}, "name": "batch_normalization_395", "inbound_nodes": [[["conv2d_395", 0, 0, {}]]]}, {"class_name": "Activation", "config": {"name": "activation_395", "trainable": false, "dtype": "float32", "activation": "relu"}, "name": "activation_395", "inbound_nodes": [[["batch_normalization_395", 0, 0, {}]]]}, {"class_name": "Conv2D", "config": {"name": "conv2d_396", "trainable": false, "dtype": "float32", "filters": 224, "kernel_size": [1, 3], "strides": [1, 1], "padding": "same", "data_format": "channels_last", "dilation_rate": [1, 1], "groups": 1, "activation": "linear", "use_bias": false, "kernel_initializer": {"class_name": "GlorotUniform", "config": {"seed": null}}, "bias_initializer": {"class_name": "Zeros", "config": {}}, "kernel_regularizer": null, "bias_regularizer": null, "activity_regularizer": null, "kernel_constraint": null, "bias_constraint": null}, "name": "conv2d_396", "inbound_nodes": [[["activation_395", 0, 0, {}]]]}, {"class_name": "BatchNormalization", "config": {"name": "batch_normalization_396", "trainable": false, "dtype": "float32", "axis": [3], "momentum": 0.99, "epsilon": 0.001, "center": true, "scale": false, "beta_initializer": {"class_name": "Zeros", "config": {}}, "gamma_initializer": {"class_name": "Ones", "config": {}}, "moving_mean_initializer": {"class_name": "Zeros", "config": {}}, "moving_variance_initializer": {"class_name": "Ones", "config": {}}, "beta_regularizer": null, "gamma_regularizer": null, "beta_constraint": null, "gamma_constraint": null}, "name": "batch_normalization_396", "inbound_nodes": [[["conv2d_396", 0, 0, {}]]]}, {"class_name": "Activation", "config": {"name": "activation_396", "trainable": false, "dtype": "float32", "activation": "relu"}, "name": "activation_396", "inbound_nodes": [[["batch_normalization_396", 0, 0, {}]]]}, {"class_name": "Conv2D", "config": {"name": "conv2d_394", "trainable": false, "dtype": "float32", "filters": 192, "kernel_size": [1, 1], "strides": [1, 1], "padding": "same", "data_format": "channels_last", "dilation_rate": [1, 1], "groups": 1, "activation": "linear", "use_bias": false, "kernel_initializer": {"class_name": "GlorotUniform", "config": {"seed": null}}, "bias_initializer": {"class_name": "Zeros", "config": {}}, "kernel_regularizer": null, "bias_regularizer": null, "activity_regularizer": null, "kernel_constraint": null, "bias_constraint": null}, "name": "conv2d_394", "inbound_nodes": [[["block8_7_ac", 0, 0, {}]]]}, {"class_name": "Conv2D", "config": {"name": "conv2d_397", "trainable": false, "dtype": "float32", "filters": 256, "kernel_size": [3, 1], "strides": [1, 1], "padding": "same", "data_format": "channels_last", "dilation_rate": [1, 1], "groups": 1, "activation": "linear", "use_bias": false, "kernel_initializer": {"class_name": "GlorotUniform", "config": {"seed": null}}, "bias_initializer": {"class_name": "Zeros", "config": {}}, "kernel_regularizer": null, "bias_regularizer": null, "activity_regularizer": null, "kernel_constraint": null, "bias_constraint": null}, "name": "conv2d_397", "inbound_nodes": [[["activation_396", 0, 0, {}]]]}, {"class_name": "BatchNormalization", "config": {"name": "batch_normalization_394", "trainable": false, "dtype": "float32", "axis": [3], "momentum": 0.99, "epsilon": 0.001, "center": true, "scale": false, "beta_initializer": {"class_name": "Zeros", "config": {}}, "gamma_initializer": {"class_name": "Ones", "config": {}}, "moving_mean_initializer": {"class_name": "Zeros", "config": {}}, "moving_variance_initializer": {"class_name": "Ones", "config": {}}, "beta_regularizer": null, "gamma_regularizer": null, "beta_constraint": null, "gamma_constraint": null}, "name": "batch_normalization_394", "inbound_nodes": [[["conv2d_394", 0, 0, {}]]]}, {"class_name": "BatchNormalization", "config": {"name": "batch_normalization_397", "trainable": false, "dtype": "float32", "axis": [3], "momentum": 0.99, "epsilon": 0.001, "center": true, "scale": false, "beta_initializer": {"class_name": "Zeros", "config": {}}, "gamma_initializer": {"class_name": "Ones", "config": {}}, "moving_mean_initializer": {"class_name": "Zeros", "config": {}}, "moving_variance_initializer": {"class_name": "Ones", "config": {}}, "beta_regularizer": null, "gamma_regularizer": null, "beta_constraint": null, "gamma_constraint": null}, "name": "batch_normalization_397", "inbound_nodes": [[["conv2d_397", 0, 0, {}]]]}, {"class_name": "Activation", "config": {"name": "activation_394", "trainable": false, "dtype": "float32", "activation": "relu"}, "name": "activation_394", "inbound_nodes": [[["batch_normalization_394", 0, 0, {}]]]}, {"class_name": "Activation", "config": {"name": "activation_397", "trainable": false, "dtype": "float32", "activation": "relu"}, "name": "activation_397", "inbound_nodes": [[["batch_normalization_397", 0, 0, {}]]]}, {"class_name": "Concatenate", "config": {"name": "block8_8_mixed", "trainable": false, "dtype": "float32", "axis": 3}, "name": "block8_8_mixed", "inbound_nodes": [[["activation_394", 0, 0, {}], ["activation_397", 0, 0, {}]]]}, {"class_name": "Conv2D", "config": {"name": "block8_8_conv", "trainable": false, "dtype": "float32", "filters": 2080, "kernel_size": [1, 1], "strides": [1, 1], "padding": "same", "data_format": "channels_last", "dilation_rate": [1, 1], "groups": 1, "activation": "linear", "use_bias": true, "kernel_initializer": {"class_name": "GlorotUniform", "config": {"seed": null}}, "bias_initializer": {"class_name": "Zeros", "config": {}}, "kernel_regularizer": null, "bias_regularizer": null, "activity_regularizer": null, "kernel_constraint": null, "bias_constraint": null}, "name": "block8_8_conv", "inbound_nodes": [[["block8_8_mixed", 0, 0, {}]]]}, {"class_name": "Lambda", "config": {"name": "block8_8", "trainable": false, "dtype": "float32", "function": ["4wIAAAAAAAAAAAAAAAIAAAADAAAAUwAAAHMUAAAAfABkARkAfABkAhkAfAEUABcAUwApA07pAAAA\nAOkBAAAAqQApAtoGaW5wdXRz2gVzY2FsZXIDAAAAcgMAAAD6ckM6L1VzZXJzL0luZHJhL2FuYWNv\nbmRhMy9lbnZzL3RmLWdwdS9saWIvc2l0ZS1wYWNrYWdlcy90ZW5zb3JmbG93L3B5dGhvbi9rZXJh\ncy9hcHBsaWNhdGlvbnMvaW5jZXB0aW9uX3Jlc25ldF92Mi5wedoIPGxhbWJkYT5xAQAA8wAAAAA=\n", null, null], "function_type": "lambda", "module": "tensorflow.python.keras.applications.inception_resnet_v2", "output_shape": [6, 6, 2080], "output_shape_type": "raw", "output_shape_module": null, "arguments": {"scale": 0.2}}, "name": "block8_8", "inbound_nodes": [[["block8_7_ac", 0, 0, {}], ["block8_8_conv", 0, 0, {}]]]}, {"class_name": "Activation", "config": {"name": "block8_8_ac", "trainable": false, "dtype": "float32", "activation": "relu"}, "name": "block8_8_ac", "inbound_nodes": [[["block8_8", 0, 0, {}]]]}, {"class_name": "Conv2D", "config": {"name": "conv2d_399", "trainable": false, "dtype": "float32", "filters": 192, "kernel_size": [1, 1], "strides": [1, 1], "padding": "same", "data_format": "channels_last", "dilation_rate": [1, 1], "groups": 1, "activation": "linear", "use_bias": false, "kernel_initializer": {"class_name": "GlorotUniform", "config": {"seed": null}}, "bias_initializer": {"class_name": "Zeros", "config": {}}, "kernel_regularizer": null, "bias_regularizer": null, "activity_regularizer": null, "kernel_constraint": null, "bias_constraint": null}, "name": "conv2d_399", "inbound_nodes": [[["block8_8_ac", 0, 0, {}]]]}, {"class_name": "BatchNormalization", "config": {"name": "batch_normalization_399", "trainable": false, "dtype": "float32", "axis": [3], "momentum": 0.99, "epsilon": 0.001, "center": true, "scale": false, "beta_initializer": {"class_name": "Zeros", "config": {}}, "gamma_initializer": {"class_name": "Ones", "config": {}}, "moving_mean_initializer": {"class_name": "Zeros", "config": {}}, "moving_variance_initializer": {"class_name": "Ones", "config": {}}, "beta_regularizer": null, "gamma_regularizer": null, "beta_constraint": null, "gamma_constraint": null}, "name": "batch_normalization_399", "inbound_nodes": [[["conv2d_399", 0, 0, {}]]]}, {"class_name": "Activation", "config": {"name": "activation_399", "trainable": false, "dtype": "float32", "activation": "relu"}, "name": "activation_399", "inbound_nodes": [[["batch_normalization_399", 0, 0, {}]]]}, {"class_name": "Conv2D", "config": {"name": "conv2d_400", "trainable": false, "dtype": "float32", "filters": 224, "kernel_size": [1, 3], "strides": [1, 1], "padding": "same", "data_format": "channels_last", "dilation_rate": [1, 1], "groups": 1, "activation": "linear", "use_bias": false, "kernel_initializer": {"class_name": "GlorotUniform", "config": {"seed": null}}, "bias_initializer": {"class_name": "Zeros", "config": {}}, "kernel_regularizer": null, "bias_regularizer": null, "activity_regularizer": null, "kernel_constraint": null, "bias_constraint": null}, "name": "conv2d_400", "inbound_nodes": [[["activation_399", 0, 0, {}]]]}, {"class_name": "BatchNormalization", "config": {"name": "batch_normalization_400", "trainable": false, "dtype": "float32", "axis": [3], "momentum": 0.99, "epsilon": 0.001, "center": true, "scale": false, "beta_initializer": {"class_name": "Zeros", "config": {}}, "gamma_initializer": {"class_name": "Ones", "config": {}}, "moving_mean_initializer": {"class_name": "Zeros", "config": {}}, "moving_variance_initializer": {"class_name": "Ones", "config": {}}, "beta_regularizer": null, "gamma_regularizer": null, "beta_constraint": null, "gamma_constraint": null}, "name": "batch_normalization_400", "inbound_nodes": [[["conv2d_400", 0, 0, {}]]]}, {"class_name": "Activation", "config": {"name": "activation_400", "trainable": false, "dtype": "float32", "activation": "relu"}, "name": "activation_400", "inbound_nodes": [[["batch_normalization_400", 0, 0, {}]]]}, {"class_name": "Conv2D", "config": {"name": "conv2d_398", "trainable": false, "dtype": "float32", "filters": 192, "kernel_size": [1, 1], "strides": [1, 1], "padding": "same", "data_format": "channels_last", "dilation_rate": [1, 1], "groups": 1, "activation": "linear", "use_bias": false, "kernel_initializer": {"class_name": "GlorotUniform", "config": {"seed": null}}, "bias_initializer": {"class_name": "Zeros", "config": {}}, "kernel_regularizer": null, "bias_regularizer": null, "activity_regularizer": null, "kernel_constraint": null, "bias_constraint": null}, "name": "conv2d_398", "inbound_nodes": [[["block8_8_ac", 0, 0, {}]]]}, {"class_name": "Conv2D", "config": {"name": "conv2d_401", "trainable": false, "dtype": "float32", "filters": 256, "kernel_size": [3, 1], "strides": [1, 1], "padding": "same", "data_format": "channels_last", "dilation_rate": [1, 1], "groups": 1, "activation": "linear", "use_bias": false, "kernel_initializer": {"class_name": "GlorotUniform", "config": {"seed": null}}, "bias_initializer": {"class_name": "Zeros", "config": {}}, "kernel_regularizer": null, "bias_regularizer": null, "activity_regularizer": null, "kernel_constraint": null, "bias_constraint": null}, "name": "conv2d_401", "inbound_nodes": [[["activation_400", 0, 0, {}]]]}, {"class_name": "BatchNormalization", "config": {"name": "batch_normalization_398", "trainable": false, "dtype": "float32", "axis": [3], "momentum": 0.99, "epsilon": 0.001, "center": true, "scale": false, "beta_initializer": {"class_name": "Zeros", "config": {}}, "gamma_initializer": {"class_name": "Ones", "config": {}}, "moving_mean_initializer": {"class_name": "Zeros", "config": {}}, "moving_variance_initializer": {"class_name": "Ones", "config": {}}, "beta_regularizer": null, "gamma_regularizer": null, "beta_constraint": null, "gamma_constraint": null}, "name": "batch_normalization_398", "inbound_nodes": [[["conv2d_398", 0, 0, {}]]]}, {"class_name": "BatchNormalization", "config": {"name": "batch_normalization_401", "trainable": false, "dtype": "float32", "axis": [3], "momentum": 0.99, "epsilon": 0.001, "center": true, "scale": false, "beta_initializer": {"class_name": "Zeros", "config": {}}, "gamma_initializer": {"class_name": "Ones", "config": {}}, "moving_mean_initializer": {"class_name": "Zeros", "config": {}}, "moving_variance_initializer": {"class_name": "Ones", "config": {}}, "beta_regularizer": null, "gamma_regularizer": null, "beta_constraint": null, "gamma_constraint": null}, "name": "batch_normalization_401", "inbound_nodes": [[["conv2d_401", 0, 0, {}]]]}, {"class_name": "Activation", "config": {"name": "activation_398", "trainable": false, "dtype": "float32", "activation": "relu"}, "name": "activation_398", "inbound_nodes": [[["batch_normalization_398", 0, 0, {}]]]}, {"class_name": "Activation", "config": {"name": "activation_401", "trainable": false, "dtype": "float32", "activation": "relu"}, "name": "activation_401", "inbound_nodes": [[["batch_normalization_401", 0, 0, {}]]]}, {"class_name": "Concatenate", "config": {"name": "block8_9_mixed", "trainable": false, "dtype": "float32", "axis": 3}, "name": "block8_9_mixed", "inbound_nodes": [[["activation_398", 0, 0, {}], ["activation_401", 0, 0, {}]]]}, {"class_name": "Conv2D", "config": {"name": "block8_9_conv", "trainable": false, "dtype": "float32", "filters": 2080, "kernel_size": [1, 1], "strides": [1, 1], "padding": "same", "data_format": "channels_last", "dilation_rate": [1, 1], "groups": 1, "activation": "linear", "use_bias": true, "kernel_initializer": {"class_name": "GlorotUniform", "config": {"seed": null}}, "bias_initializer": {"class_name": "Zeros", "config": {}}, "kernel_regularizer": null, "bias_regularizer": null, "activity_regularizer": null, "kernel_constraint": null, "bias_constraint": null}, "name": "block8_9_conv", "inbound_nodes": [[["block8_9_mixed", 0, 0, {}]]]}, {"class_name": "Lambda", "config": {"name": "block8_9", "trainable": false, "dtype": "float32", "function": ["4wIAAAAAAAAAAAAAAAIAAAADAAAAUwAAAHMUAAAAfABkARkAfABkAhkAfAEUABcAUwApA07pAAAA\nAOkBAAAAqQApAtoGaW5wdXRz2gVzY2FsZXIDAAAAcgMAAAD6ckM6L1VzZXJzL0luZHJhL2FuYWNv\nbmRhMy9lbnZzL3RmLWdwdS9saWIvc2l0ZS1wYWNrYWdlcy90ZW5zb3JmbG93L3B5dGhvbi9rZXJh\ncy9hcHBsaWNhdGlvbnMvaW5jZXB0aW9uX3Jlc25ldF92Mi5wedoIPGxhbWJkYT5xAQAA8wAAAAA=\n", null, null], "function_type": "lambda", "module": "tensorflow.python.keras.applications.inception_resnet_v2", "output_shape": [6, 6, 2080], "output_shape_type": "raw", "output_shape_module": null, "arguments": {"scale": 0.2}}, "name": "block8_9", "inbound_nodes": [[["block8_8_ac", 0, 0, {}], ["block8_9_conv", 0, 0, {}]]]}, {"class_name": "Activation", "config": {"name": "block8_9_ac", "trainable": false, "dtype": "float32", "activation": "relu"}, "name": "block8_9_ac", "inbound_nodes": [[["block8_9", 0, 0, {}]]]}, {"class_name": "Conv2D", "config": {"name": "conv2d_403", "trainable": false, "dtype": "float32", "filters": 192, "kernel_size": [1, 1], "strides": [1, 1], "padding": "same", "data_format": "channels_last", "dilation_rate": [1, 1], "groups": 1, "activation": "linear", "use_bias": false, "kernel_initializer": {"class_name": "GlorotUniform", "config": {"seed": null}}, "bias_initializer": {"class_name": "Zeros", "config": {}}, "kernel_regularizer": null, "bias_regularizer": null, "activity_regularizer": null, "kernel_constraint": null, "bias_constraint": null}, "name": "conv2d_403", "inbound_nodes": [[["block8_9_ac", 0, 0, {}]]]}, {"class_name": "BatchNormalization", "config": {"name": "batch_normalization_403", "trainable": false, "dtype": "float32", "axis": [3], "momentum": 0.99, "epsilon": 0.001, "center": true, "scale": false, "beta_initializer": {"class_name": "Zeros", "config": {}}, "gamma_initializer": {"class_name": "Ones", "config": {}}, "moving_mean_initializer": {"class_name": "Zeros", "config": {}}, "moving_variance_initializer": {"class_name": "Ones", "config": {}}, "beta_regularizer": null, "gamma_regularizer": null, "beta_constraint": null, "gamma_constraint": null}, "name": "batch_normalization_403", "inbound_nodes": [[["conv2d_403", 0, 0, {}]]]}, {"class_name": "Activation", "config": {"name": "activation_403", "trainable": false, "dtype": "float32", "activation": "relu"}, "name": "activation_403", "inbound_nodes": [[["batch_normalization_403", 0, 0, {}]]]}, {"class_name": "Conv2D", "config": {"name": "conv2d_404", "trainable": false, "dtype": "float32", "filters": 224, "kernel_size": [1, 3], "strides": [1, 1], "padding": "same", "data_format": "channels_last", "dilation_rate": [1, 1], "groups": 1, "activation": "linear", "use_bias": false, "kernel_initializer": {"class_name": "GlorotUniform", "config": {"seed": null}}, "bias_initializer": {"class_name": "Zeros", "config": {}}, "kernel_regularizer": null, "bias_regularizer": null, "activity_regularizer": null, "kernel_constraint": null, "bias_constraint": null}, "name": "conv2d_404", "inbound_nodes": [[["activation_403", 0, 0, {}]]]}, {"class_name": "BatchNormalization", "config": {"name": "batch_normalization_404", "trainable": false, "dtype": "float32", "axis": [3], "momentum": 0.99, "epsilon": 0.001, "center": true, "scale": false, "beta_initializer": {"class_name": "Zeros", "config": {}}, "gamma_initializer": {"class_name": "Ones", "config": {}}, "moving_mean_initializer": {"class_name": "Zeros", "config": {}}, "moving_variance_initializer": {"class_name": "Ones", "config": {}}, "beta_regularizer": null, "gamma_regularizer": null, "beta_constraint": null, "gamma_constraint": null}, "name": "batch_normalization_404", "inbound_nodes": [[["conv2d_404", 0, 0, {}]]]}, {"class_name": "Activation", "config": {"name": "activation_404", "trainable": false, "dtype": "float32", "activation": "relu"}, "name": "activation_404", "inbound_nodes": [[["batch_normalization_404", 0, 0, {}]]]}, {"class_name": "Conv2D", "config": {"name": "conv2d_402", "trainable": false, "dtype": "float32", "filters": 192, "kernel_size": [1, 1], "strides": [1, 1], "padding": "same", "data_format": "channels_last", "dilation_rate": [1, 1], "groups": 1, "activation": "linear", "use_bias": false, "kernel_initializer": {"class_name": "GlorotUniform", "config": {"seed": null}}, "bias_initializer": {"class_name": "Zeros", "config": {}}, "kernel_regularizer": null, "bias_regularizer": null, "activity_regularizer": null, "kernel_constraint": null, "bias_constraint": null}, "name": "conv2d_402", "inbound_nodes": [[["block8_9_ac", 0, 0, {}]]]}, {"class_name": "Conv2D", "config": {"name": "conv2d_405", "trainable": false, "dtype": "float32", "filters": 256, "kernel_size": [3, 1], "strides": [1, 1], "padding": "same", "data_format": "channels_last", "dilation_rate": [1, 1], "groups": 1, "activation": "linear", "use_bias": false, "kernel_initializer": {"class_name": "GlorotUniform", "config": {"seed": null}}, "bias_initializer": {"class_name": "Zeros", "config": {}}, "kernel_regularizer": null, "bias_regularizer": null, "activity_regularizer": null, "kernel_constraint": null, "bias_constraint": null}, "name": "conv2d_405", "inbound_nodes": [[["activation_404", 0, 0, {}]]]}, {"class_name": "BatchNormalization", "config": {"name": "batch_normalization_402", "trainable": false, "dtype": "float32", "axis": [3], "momentum": 0.99, "epsilon": 0.001, "center": true, "scale": false, "beta_initializer": {"class_name": "Zeros", "config": {}}, "gamma_initializer": {"class_name": "Ones", "config": {}}, "moving_mean_initializer": {"class_name": "Zeros", "config": {}}, "moving_variance_initializer": {"class_name": "Ones", "config": {}}, "beta_regularizer": null, "gamma_regularizer": null, "beta_constraint": null, "gamma_constraint": null}, "name": "batch_normalization_402", "inbound_nodes": [[["conv2d_402", 0, 0, {}]]]}, {"class_name": "BatchNormalization", "config": {"name": "batch_normalization_405", "trainable": false, "dtype": "float32", "axis": [3], "momentum": 0.99, "epsilon": 0.001, "center": true, "scale": false, "beta_initializer": {"class_name": "Zeros", "config": {}}, "gamma_initializer": {"class_name": "Ones", "config": {}}, "moving_mean_initializer": {"class_name": "Zeros", "config": {}}, "moving_variance_initializer": {"class_name": "Ones", "config": {}}, "beta_regularizer": null, "gamma_regularizer": null, "beta_constraint": null, "gamma_constraint": null}, "name": "batch_normalization_405", "inbound_nodes": [[["conv2d_405", 0, 0, {}]]]}, {"class_name": "Activation", "config": {"name": "activation_402", "trainable": false, "dtype": "float32", "activation": "relu"}, "name": "activation_402", "inbound_nodes": [[["batch_normalization_402", 0, 0, {}]]]}, {"class_name": "Activation", "config": {"name": "activation_405", "trainable": false, "dtype": "float32", "activation": "relu"}, "name": "activation_405", "inbound_nodes": [[["batch_normalization_405", 0, 0, {}]]]}, {"class_name": "Concatenate", "config": {"name": "block8_10_mixed", "trainable": false, "dtype": "float32", "axis": 3}, "name": "block8_10_mixed", "inbound_nodes": [[["activation_402", 0, 0, {}], ["activation_405", 0, 0, {}]]]}, {"class_name": "Conv2D", "config": {"name": "block8_10_conv", "trainable": false, "dtype": "float32", "filters": 2080, "kernel_size": [1, 1], "strides": [1, 1], "padding": "same", "data_format": "channels_last", "dilation_rate": [1, 1], "groups": 1, "activation": "linear", "use_bias": true, "kernel_initializer": {"class_name": "GlorotUniform", "config": {"seed": null}}, "bias_initializer": {"class_name": "Zeros", "config": {}}, "kernel_regularizer": null, "bias_regularizer": null, "activity_regularizer": null, "kernel_constraint": null, "bias_constraint": null}, "name": "block8_10_conv", "inbound_nodes": [[["block8_10_mixed", 0, 0, {}]]]}, {"class_name": "Lambda", "config": {"name": "block8_10", "trainable": false, "dtype": "float32", "function": ["4wIAAAAAAAAAAAAAAAIAAAADAAAAUwAAAHMUAAAAfABkARkAfABkAhkAfAEUABcAUwApA07pAAAA\nAOkBAAAAqQApAtoGaW5wdXRz2gVzY2FsZXIDAAAAcgMAAAD6ckM6L1VzZXJzL0luZHJhL2FuYWNv\nbmRhMy9lbnZzL3RmLWdwdS9saWIvc2l0ZS1wYWNrYWdlcy90ZW5zb3JmbG93L3B5dGhvbi9rZXJh\ncy9hcHBsaWNhdGlvbnMvaW5jZXB0aW9uX3Jlc25ldF92Mi5wedoIPGxhbWJkYT5xAQAA8wAAAAA=\n", null, null], "function_type": "lambda", "module": "tensorflow.python.keras.applications.inception_resnet_v2", "output_shape": [6, 6, 2080], "output_shape_type": "raw", "output_shape_module": null, "arguments": {"scale": 1.0}}, "name": "block8_10", "inbound_nodes": [[["block8_9_ac", 0, 0, {}], ["block8_10_conv", 0, 0, {}]]]}, {"class_name": "Conv2D", "config": {"name": "conv_7b", "trainable": false, "dtype": "float32", "filters": 1536, "kernel_size": [1, 1], "strides": [1, 1], "padding": "same", "data_format": "channels_last", "dilation_rate": [1, 1], "groups": 1, "activation": "linear", "use_bias": false, "kernel_initializer": {"class_name": "GlorotUniform", "config": {"seed": null}}, "bias_initializer": {"class_name": "Zeros", "config": {}}, "kernel_regularizer": null, "bias_regularizer": null, "activity_regularizer": null, "kernel_constraint": null, "bias_constraint": null}, "name": "conv_7b", "inbound_nodes": [[["block8_10", 0, 0, {}]]]}, {"class_name": "BatchNormalization", "config": {"name": "conv_7b_bn", "trainable": false, "dtype": "float32", "axis": [3], "momentum": 0.99, "epsilon": 0.001, "center": true, "scale": false, "beta_initializer": {"class_name": "Zeros", "config": {}}, "gamma_initializer": {"class_name": "Ones", "config": {}}, "moving_mean_initializer": {"class_name": "Zeros", "config": {}}, "moving_variance_initializer": {"class_name": "Ones", "config": {}}, "beta_regularizer": null, "gamma_regularizer": null, "beta_constraint": null, "gamma_constraint": null}, "name": "conv_7b_bn", "inbound_nodes": [[["conv_7b", 0, 0, {}]]]}, {"class_name": "Activation", "config": {"name": "conv_7b_ac", "trainable": false, "dtype": "float32", "activation": "relu"}, "name": "conv_7b_ac", "inbound_nodes": [[["conv_7b_bn", 0, 0, {}]]]}, {"class_name": "GlobalAveragePooling2D", "config": {"name": "global_average_pooling2d_1", "trainable": true, "dtype": "float32", "data_format": "channels_last"}, "name": "global_average_pooling2d_1", "inbound_nodes": [[["conv_7b_ac", 0, 0, {}]]]}, {"class_name": "Dense", "config": {"name": "dense_3", "trainable": true, "dtype": "float32", "units": 128, "activation": "relu", "use_bias": true, "kernel_initializer": {"class_name": "GlorotUniform", "config": {"seed": null}}, "bias_initializer": {"class_name": "Zeros", "config": {}}, "kernel_regularizer": null, "bias_regularizer": null, "activity_regularizer": null, "kernel_constraint": null, "bias_constraint": null}, "name": "dense_3", "inbound_nodes": [[["global_average_pooling2d_1", 0, 0, {}]]]}, {"class_name": "Dense", "config": {"name": "dense_4", "trainable": true, "dtype": "float32", "units": 64, "activation": "relu", "use_bias": true, "kernel_initializer": {"class_name": "GlorotUniform", "config": {"seed": null}}, "bias_initializer": {"class_name": "Zeros", "config": {}}, "kernel_regularizer": null, "bias_regularizer": null, "activity_regularizer": null, "kernel_constraint": null, "bias_constraint": null}, "name": "dense_4", "inbound_nodes": [[["dense_3", 0, 0, {}]]]}, {"class_name": "Dense", "config": {"name": "dense_5", "trainable": true, "dtype": "float32", "units": 1, "activation": "sigmoid", "use_bias": true, "kernel_initializer": {"class_name": "GlorotUniform", "config": {"seed": null}}, "bias_initializer": {"class_name": "Zeros", "config": {}}, "kernel_regularizer": null, "bias_regularizer": null, "activity_regularizer": null, "kernel_constraint": null, "bias_constraint": null}, "name": "dense_5", "inbound_nodes": [[["dense_4", 0, 0, {}]]]}], "input_layers": [["input_2", 0, 0]], "output_layers": [["dense_5", 0, 0]]}, "keras_version": "2.4.0", "backend": "tensorflow"}